Assets/ML-Agents/Brains/Volleyball/My Behavior.onnx (onnx, 78044 bytes, 7 tensors)

action_model._continuous_distribution.log_sigma f4 [1, 6]
000000 76 3f 8e 3b 1b 1b 14 3c ae c2 b0 3c e6 d7 78 3c
       0.004341061 0.009039666 0.021577206 0.015188193
000010 d6 3b 88 bb 7f 70 c4 3b
       -0.0041575236 0.005994856

action_model._continuous_distribution.mu.bias f4 [6]
000000 d5 fb d6 ba af 8f db ba 4b a2 33 bb 2a c6 0d ba
       -0.0016401956 -0.0016751195 -0.0027409967 -0.0005408252
000010 ba d5 49 bb a6 99 a7 3a
       -0.0030797557 0.001278688

action_model._continuous_distribution.mu.weight f4 [6, 128]
000000 a1 ae 8f bc f2 2a c6 bc 1d eb 15 3d 58 8a 11 3b
       -0.017539324 -0.0241904 0.036601175 0.0022207703
000010 e7 ec f9 ba b9 e3 b2 3c 4b 3e 07 bb 70 db 80 3c
       -0.0019067795 0.021837102 -0.0020636495 0.015729636
000020 4e d9 a7 3c ef 04 8a 3c 6a 77 bf bc 0c 88 04 3c
       0.020489361 0.016848056 -0.02337237 0.008089077
000030 12 73 04 3d 12 a2 9a 3c 92 01 df bc f2 3d 5f 3c
       0.032336302 0.01887611 -0.027222428 0.013625609
000040 78 01 e3 bb 98 b3 33 bb c9 8a 36 bc 72 07 26 3c
       -0.0069276653 -0.0027420279 -0.011141487 0.010133611
000050 c4 49 f9 3b 44 bc ae bc 19 d2 e2 3c 21 f2 29 3c
       0.0076076705 -0.021330006 0.027688073 0.010372669
000060 2b 5b 7b 3a d6 fd ca bc 6a bc f4 3c 2d 28 b6 3c
       0.0009588475 -0.024779242 0.029875 0.022235954
000070 38 f4 33 3b 57 48 f1 bb 9e e7 07 bd f3 b0 99 bb
       0.0027458798 -0.00736336 -0.03317987 -0.0046902834
000080 33 21 d0 bc f0 c8 77 ba 82 2c a4 bc 9b 5f 38 bc
       -0.025406456 -0.0009452244 -0.020040754 -0.011253263
000090 cf 39 c3 3b 22 8c e7 bb 20 7d 56 3c 29 54 a1 b8
       0.005957819 -0.0070662657 0.013091356 -7.692754e-05
0000a0 08 5f 6c bc 93 a4 96 bb 5a bd d0 bc 36 c0 c5 b9
       -0.014426954 -0.0045972555 -0.025480915 -0.00037717976
0000b0 7b 87 26 3a d4 60 1a bb 62 ae 4b b9 73 d0 c6 3c
       0.00063525856 -0.002355625 -0.00019424551 0.024269318
0000c0 9b c2 81 3b 9f 54 a8 3c 1c c9 78 bc ee ac 32 bd
       0.0039599664 0.020548163 -0.015184667 -0.04362195
0000d0 14 69 c0 bc 0b f9 0e 3d 69 56 5f bc 6b e1 d8 bb
       -0.023487605 0.034905475 -0.013631442 -0.006618669
0000e0 16 6a 29 bd 3c 52 9c 3b c5 43 06 3d b4 78 07 3c
       -0.041360937 0.0047705453 0.032779474 0.008268524
0000f0 32 38 01 3b c8 a1 4f ba a0 59 80 bc ce 81 17 bc
       0.0019717333 -0.00079205306 -0.015667737 -0.009247256
000100 b3 58 9f 3b 44 ca 5c bc c9 e7 06 bd c3 41 8e 3a
       0.0048628687 -0.013475958 -0.03293589 0.0010853339
000110 ef 8a 9b 3a d2 02 0d 3a be 64 3a 3c 0c 3f 80 3c
       0.0011866967 0.00053791434 0.011376558 0.015655063
000120 ad 3f c8 3c fd e1 6b 3c 40 52 aa bc 48 d0 25 bc
       0.024444425 0.0143971415 -0.020791173 -0.010120459
000130 da 5e 9c ba 88 2a 93 3c 31 8a af ba ec 95 05 3c
       -0.0011930123 0.017964616 -0.0013392625 0.00815342
000140 31 8e 94 3c fe fb db bc f6 59 b8 bc 7e 1e 8d bc
       0.018134208 -0.026853558 -0.022503834 -0.017226454
000150 0b 6f 11 bd bf d8 8a 3c 08 86 9e bc 25 f8 59 bb
       -0.03550629 0.016949056 -0.01935102 -0.0033259478
000160 e8 8b 10 3b 0e b0 c5 bc 58 c2 61 bc 09 11 86 3c
       0.0022056047 -0.024131801 -0.013779245 0.016365545
000170 5f 8f c0 3b a4 26 06 bc fc bf 5e bc 16 56 99 3b
       0.005876466 -0.008187924 -0.013595577 0.0046794517
000180 37 49 ca bc 91 03 ab bb 89 0d a9 bb 53 40 03 bc
       -0.024693115 -0.005218931 -0.005159084 -0.008010942
000190 c9 ca 20 3c 3c 20 a6 bb 9e 5c c8 ba 6c 2b f1 3a
       0.009813973 -0.0050697606 -0.0015286391 0.0018399782
0001a0 97 c0 d4 3a 4e 71 c1 3b b2 2d 2d bc 06 0a 7e bc
       0.0016231713 0.0059033995 -0.010569977 -0.015505319
0001b0 a3 8a 1c 3c ff f1 39 bc ac 12 7f bc d2 ee 2a 3c
       0.009554538 -0.0113492 -0.015568417 0.010432916
0001c0 bc 59 08 3d 61 3d a7 3b a7 2c 49 bc 2c 73 0d bd
       0.033288702 0.0051037525 -0.012278712 -0.034533665
0001d0 d3 ad 35 3c 48 62 00 bb 7d 42 b8 bc 4b 68 40 3b
       0.011088806 -0.001958983 -0.022492642 0.0029359038
0001e0 5c a4 6c 3c 64 b5 f6 bc 81 14 6c 3c ab 6c b1 bc
       0.014443483 -0.03011579 0.014409185 -0.021658262
0001f0 c4 e6 b3 3c 4c 44 ba 3c 2b 89 f0 bb 35 e1 6f bc
       0.021960624 0.022737645 -0.0073405704 -0.014641096
000200 4c 1b 84 bc 42 46 b0 bc 8d 06 d0 3c 89 97 c5 bc
       -0.016126297 -0.021517877 0.025393749 -0.02412011
000210 40 fb 1e 3d 38 fc ae 3c f6 c8 72 3d 32 73 a3 3c
       0.03881383 0.021360502 0.059273683 0.01995239
000220 56 01 a5 bc 68 26 e7 bb 0e 09 86 bc 78 d9 bc bc
       -0.020142239 -0.007054139 -0.01636174 -0.023052916
000230 5e 74 d7 bb 92 a1 54 bc 5d 8e 8c bb b2 0a 2c 3d
       -0.0065751513 -0.0129779745 -0.004289432 0.042002387
000240 02 56 eb bc c2 b6 1b 3c 43 52 d2 bb dd ef 81 bc
       -0.028727535 0.009504022 -0.006418498 -0.015861446
000250 23 96 6f 3b 97 45 a3 bc 91 61 20 3d 0e 2f d6 bc
       0.0036557994 -0.019930644 0.039155547 -0.026145484
000260 e6 12 0b bc 2a ae c6 3c 7b dc 9d bb 8a 17 da 3b
       -0.008488392 0.02425297 -0.004817543 0.006655638
000270 d8 2d df bc ba da f9 3b d8 a3 01 bc 98 35 a8 bc
       -0.02724354 0.007624951 -0.007912599 -0.020533368
000280 65 23 b1 3c 57 15 3a 3b f7 61 b5 3a c8 d1 0e bc
       0.021623323 0.0028394067 0.00138384 -0.008717008
000290 9c 6f e9 bb 70 c7 b3 3b 7e f6 24 bb 39 12 91 3c
       -0.0071239006 0.0054864213 -0.0025171335 0.017708885
0002a0 ee b3 f5 3c 0b ab 45 3c b6 a9 d9 3c ef da 81 bc
       0.029993024 0.012064706 0.026570182 -0.015851466
0002b0 6a 7e c8 3c 01 fc d7 3b 48 10 4b 3d 96 ea df bb
       0.024474341 0.0065913205 0.049576074 -0.0068333847
0002c0 76 42 01 3c e5 08 e0 3c ce e6 46 bc 3f 23 99 bc
       0.007889381 0.027347991 -0.012139989 -0.018693564
0002d0 9b dc d8 3c f0 9b 4c bb b9 ee aa 3b c5 3b fb ba
       0.02647238 -0.0031220876 0.0052164462 -0.0019167593
0002e0 b3 b2 30 b9 b7 e2 24 bb d8 f9 d3 bc 69 8d b7 3a
       -0.00016851239 -0.0025159547 -0.02587597 0.0014003936
0002f0 4e a8 b4 3c 43 53 31 bc f7 de 93 bc 9f 93 a8 bc
       0.02205291 -0.010823074 -0.018050654 -0.020578204
000300 2a a6 c9 3c 76 33 f5 bb bb 40 9e bc 24 cd 1d bc
       0.024615366 -0.0074829413 -0.019317975 -0.009631429
000310 a4 a2 59 ba 1c f4 3a bc 4b 6c 1c bb 5a 93 ae bb
       -0.00083021284 -0.011410739 -0.0023868259 -0.0053276243
000320 86 60 b3 bb 20 e0 23 3b 6f c9 36 3d 5d df d3 bb
       -0.005474153 0.0025005415 0.044625696 -0.006465836
000330 03 f5 42 bb c7 57 49 bc 2a f9 82 3c a3 8b ec 3a
       -0.002974809 -0.012288994 0.015987951 0.0018046986
000340 9c f1 04 3b e2 8c cf bc 4f b4 14 bc 0a 09 00 bc
       0.0020285612 -0.025335733 -0.009076192 -0.007814655
000350 d5 b7 ef 3c 28 3d 47 bc 28 97 b0 bc 29 86 c2 bb
       0.029262463 -0.012160577 -0.021556452 -0.0059364033
000360 dd 2f b3 3a 7d 13 a0 bc ac ae 91 3b 85 4e 34 3c
       0.001367088 -0.019540543 0.0044458713 0.011005049
000370 b7 08 a9 3c ba a6 02 3d 0c cb 61 bb 5a 58 40 bc
       0.020634038 0.031897284 -0.00344533 -0.011739815
000380 8e 6e b5 3c c8 60 01 3d 2c 2c 90 bb ca 59 77 3c
       0.022147443 0.03158644 -0.004399797 0.015097091
000390 61 e3 8f 3c 1b 93 41 3d cc 96 cc 39 01 d2 dd bc
       0.017564477 0.04725943 0.00039022265 -0.027077677
0003a0 2a 7f 00 3c cc 90 13 bc 47 05 8b 3c 8a 20 76 3c
       0.007842818 -0.00900669 0.01697029 0.015022406
0003b0 0d af b7 bc 4d 26 01 bc 9e 6c da 3b 5c 7f 1b bd
       -0.022422338 -0.007882667 0.00666578 -0.037963256
0003c0 4a 7f cb bc a5 bb d3 3c 0f 45 47 3c 95 a3 91 3a
       -0.02484097 0.025846312 0.012162461 0.0011111373
0003d0 0e 4e 1a bc e2 b3 b3 3b 8c 20 d4 bc 67 28 a6 bb
       -0.009418024 0.00548409 -0.025894426 -0.0050707343
0003e0 f7 db 90 bc 1f 61 70 3c 15 b5 fe 3a 39 c8 04 bb
       -0.017683012 0.014671593 0.0019432629 -0.0020260944
0003f0 cd 7f 88 3c 7c 77 80 bc e3 fe 24 3c 6e 7d 6b bb
       0.016662503 -0.015681975 0.010070535 -0.0035932916

network_body.linear_encoder.seq_layers.0.bias f4 [128]
000000 8e b0 50 ba e2 e3 93 bb f5 ff 76 3b 03 24 8e bb
       -0.0007960879 -0.0045132497 0.0037689183 -0.004337789
000010 28 60 ae 3b 13 3c 27 bb 01 8a 07 3b 32 93 b5 bb
       0.0053215213 -0.0025517985 0.0020681622 -0.0055412287
000020 e3 20 5b 3b cd a9 64 bb de 0a 5a 37 c5 08 24 bc
       0.003343635 -0.0034891248 1.2996343e-05 -0.010011856
000030 38 c0 ba bb 27 2f 8c 3a 40 ed aa bb 06 7d 31 3a
       -0.005699184 0.0010695205 -0.0052162707 0.0006770644
000040 99 64 ea 3a b4 ef c6 bb be 59 48 bb db eb ae ba
       0.0017882764 -0.0060710553 -0.0030571069 -0.0013345437
000050 c8 d7 b9 ba f4 c6 a0 ba a5 f9 19 ba 8e 07 2a bc
       -0.0014178688 -0.0012266324 -0.0005873687 -0.010377778
000060 74 d2 7b 3b 63 0a 0b bb 1f 6b 8c ba ce 75 0b 3b
       0.0038425 -0.0021215908 -0.0010713077 0.0021279934
000070 a3 45 83 bb 97 02 5d ba 1b 36 18 bb b4 c0 35 3a
       -0.004006104 -0.0008430867 -0.0023225609 0.0006933317
000080 2a f8 6c bb 47 6b 82 bb 4f b3 0b 3b aa e7 64 3b
       -0.003615866 -0.0039800736 0.0021316593 0.0034928122
000090 b8 b2 e0 bb 3d 0e 4a bc eb 17 6e bc 2f 40 19 bb
       -0.0068572424 -0.012332496 -0.01453207 -0.0023384204
0000a0 29 ff 04 3b db 74 c7 3a 41 1e de 3b 21 b2 1c bc
       0.002029369 0.0015217321 0.006778509 -0.009563954
0000b0 38 86 6d 3b af 2e 20 3b 91 04 1a 3b 15 2b d6 ba
       0.003624333 0.0024441888 0.0023501257 -0.0016339744
0000c0 f0 30 bd bb e3 a3 c2 bb 8f bf cf 3a a9 26 34 3b
       -0.005773656 -0.005939947 0.0015849936 0.0027488864
0000d0 12 0f d9 bb 42 38 f7 b6 b1 9b bd ba 68 ed c2 bb
       -0.006624111 -7.367723e-06 -0.0014465955 -0.005948711
0000e0 10 51 02 bb 84 2a ea 3b b7 63 ac 3a 3b 06 97 bc
       -0.0019884743 0.0071461815 0.0013152276 -0.018435588
0000f0 4b 87 8a 3c 6a 07 c5 3b f3 d3 46 bb 36 20 d2 3b
       0.016910216 0.0060128467 -0.0030338734 0.0064125312
000100 dc 5c be 3b 6b 49 bf bb 80 05 e6 bb f6 01 4e bb
       0.0058094095 -0.0058376095 -0.0070196986 -0.0031434274
000110 fe f9 d0 39 a7 00 ec 3a 2e 31 ee 3b 36 26 9c 3b
       0.0003985911 0.0018005566 0.0072690463 0.0047652973
000120 48 cb 77 bc 98 55 8b bb c3 9f f2 bb 86 5d 05 bc
       -0.01512415 -0.004252147 -0.007404299 -0.0081399735
000130 a7 c6 a2 bb 46 5a 0c bb a2 92 ad bb a4 b9 02 bb
       -0.004967529 -0.0021416112 -0.005297021 -0.0019947076
000140 31 c1 eb 3b 26 42 27 3b 05 f2 e7 bb ef f6 8f 3b
       0.007194661 0.0025521605 -0.0070784115 0.0043934505
000150 e9 5f 13 b9 6d 50 99 3b e9 60 d9 bb 8f be 01 bb
       -0.00014054742 0.004678777 -0.006633867 -0.001979742
000160 01 56 f9 bb 0a 52 9f b9 f3 c5 ae bb 84 a8 2f bb
       -0.0076091294 -0.00030387967 -0.005333656 -0.0026803324
000170 bf 51 a0 3b 60 4b ec b8 df 64 2b bc cb fc f0 bb
       0.0048925574 -0.000112673966 -0.010461061 -0.007354354
000180 b4 dd 84 bb 99 a1 89 3a e7 d5 3d bb a7 8a 06 bb
       -0.0040547494 0.001050043 -0.0028966607 -0.002052942
000190 b6 4f 7b 39 9f 0b d1 ba 41 44 f1 3b 47 29 04 bc
       0.0002396692 -0.0015948898 0.007362873 -0.008066482
0001a0 9d 99 e8 ba d0 16 60 bb 7b 0a fc bb 0a f7 8c bb
       -0.0017745976 -0.0034193285 -0.007691679 -0.0043019103
0001b0 5d ce 9e ba 8b 84 af bb 87 92 8b 3a 15 eb 17 3a
       -0.0012115944 -0.0053563765 0.0010648527 0.0005795223
0001c0 c3 81 42 bb a1 15 c9 bb b3 cf bf ba 1d 68 0e bb
       -0.0029679395 -0.0061366116 -0.0014634043 -0.0021729537
0001d0 7b 40 1d 3b 81 81 6f 3b 57 57 2e 39 73 ef 4b 3c
       0.0023994732 0.0036545696 0.0001662647 0.012447226
0001e0 a6 4d 49 3b 95 56 55 bc 7b d1 d9 3a d5 ba 05 3b
       0.0030716448 -0.013021131 0.0016618216 0.002040555
0001f0 0b 2a db 3b 2c 3a a3 bb 83 19 73 bc d2 66 a0 bb
       0.0066883615 -0.0049813 -0.014837625 -0.0048950696

network_body.linear_encoder.seq_layers.0.weight f4 [128, 12]
000000 b0 98 54 3e 68 06 e8 bd ff ad 8e 3f 14 96 03 3f
       0.2076137 -0.11329347 1.1146849 0.51400876
000010 6d ba 29 3f 51 42 04 bd 1e 9b 00 bf 71 ac d4 be
       0.6630009 -0.032289807 -0.5023669 -0.41537812
000020 51 af b0 3d 83 81 e7 be 29 55 bf be e1 37 aa bd
       0.08627189 -0.45215997 -0.3736966 -0.08311439
000030 9c 8d ab be 39 7d 37 be f9 e7 1a 3c 30 a1 9c 3e
       -0.33506477 -0.17918862 0.009454721 0.30591726
000040 d8 2a 13 be b6 e3 a0 be 96 43 a8 bd aa d8 df 3e
       -0.14371812 -0.3142373 -0.08216016 0.4371999
000050 21 f7 f3 3d a8 55 88 be fe 5c b7 3e fa ec a8 3e
       0.119123705 -0.2662785 0.35813135 0.329933
000060 bd 26 23 3e 42 40 65 3e 19 51 e8 3c 25 c9 32 bf
       0.15932746 0.22387794 0.028358983 -0.6983817
000070 d1 f8 b4 3d 6c 3f 6d be 0a dd 9d 3e c3 bc c0 3e
       0.088365205 -0.23168725 0.30832702 0.37644014
000080 82 d0 00 3e 45 5a f4 bd cd b7 65 be 91 42 16 be
       0.1257954 -0.1193128 -0.22433396 -0.1467383
000090 e4 4d 41 3d 24 0c 28 bf 79 32 9b be d5 15 cd 3e
       0.047193423 -0.65643525 -0.30311945 0.4005572
0000a0 e5 47 c5 3e 24 73 1b bc 48 96 83 3d 85 4d d5 3d
       0.38531414 -0.009487901 0.06425148 0.10415176
0000b0 8e 5e db 3c b7 23 a2 3e b9 15 2e 3f ba bc 88 3e
       0.026778486 0.31667873 0.68001896 0.26706487
0000c0 82 d1 69 bd 33 ca 03 3e a6 0d 85 be a6 11 3a 3d
       -0.057084568 0.12870102 -0.25986975 0.045426987
0000d0 1d 85 84 3e 84 02 e3 3d 18 5e 4a 3e e0 70 0c be
       0.25882807 0.11084464 0.19762456 -0.13714933
0000e0 e0 3e b1 bd 37 a8 23 bd 21 dc 34 be 7e f7 b2 be
       -0.086545706 -0.039955344 -0.17662098 -0.34954447
0000f0 89 c6 ce 3e 9d 4b 85 3e 2d 95 be 3e 7f ca 0c 3d
       0.40385845 0.2603425 0.37223187 0.034372803
000100 c2 7b 01 3f 90 be a3 bd 8d e7 67 be ca 49 14 3d
       0.50579464 -0.07995331 -0.22646923 0.036203183
000110 e0 1f 39 3d 07 30 70 bf 51 89 f4 bd a7 41 d0 3d
       0.045196414 -0.93823284 -0.119402535 0.10168772
000120 f3 4d 17 bf f7 03 0c 3f 83 0e 13 3f 44 f9 84 3c
       -0.59103316 0.5469355 0.5744402 0.01623214
000130 17 d1 63 be 76 97 85 be 00 74 ac 3d 51 f8 1b 3e
       -0.2224773 -0.26092118 0.08420563 0.15231444
000140 65 e1 f6 be 40 90 3c 3e 18 79 db bc ed 14 cb 3e
       -0.48218837 0.18414402 -0.02679114 0.39664403
000150 4f 52 db 3e 5a 7a 1b 3e cb d2 14 be b3 71 b8 3d
       0.42836234 0.15183392 -0.14533536 0.090060614
000160 cc c9 6b 3e d0 3d ba 3e 13 ee 48 3e 9f 3b 9e 3b
       0.23026198 0.36375284 0.19622068 0.0048288847
000170 5c 39 e5 3d 15 9a 17 3e a4 ce 0a be f0 75 2b 3d
       0.11192581 0.14804871 -0.1355539 0.04186052
000180 24 86 97 3e 2f 9f 7b 3e f1 c1 9a be 68 9f a7 3e
       0.2959453 0.24572442 -0.3022609 0.32738805
000190 f9 c9 98 bd ac fd 18 be 64 99 04 3e a6 6b 95 3e
       -0.07460398 -0.14940518 0.12949139 0.29183692
0001a0 78 65 02 bf 86 5d 30 3e 03 44 0b bf 60 66 d5 bd
       -0.5093608 0.17223176 -0.5440065 -0.10419917
0001b0 22 62 82 be b7 7c 45 3c 61 e0 31 3e 4d eb fa 3d
       -0.25465494 0.01205366 0.1737075 0.12251911
0001c0 8c 91 ca 3c 0d ae df bd 30 62 ac 3e 5d 00 9c be
       0.024727605 -0.109218694 0.3366866 -0.30469027
0001d0 06 6a bc 3d a8 26 e3 be ba 5f 13 3f 66 2c d6 3e
       0.0919991 -0.4436543 0.5756794 0.41830748
0001e0 4d 55 13 3e 7c 1b 69 be 48 e2 10 3b 32 cf 71 be
       0.14388008 -0.2276439 0.002210753 -0.23614195
0001f0 52 19 08 be 74 07 ba bd e1 1c 5b 3d 7d 36 78 be
       -0.13290909 -0.09083453 0.053494338 -0.24239536
000200 3f 00 92 3e d4 6d 89 be 0a 9b c9 3e c4 d4 b5 3e
       0.28515813 -0.26841605 0.39376098 0.3551389
000210 4a 6d f4 be da 9f b6 3d bb 43 9d 3d 8d 18 36 3d
       -0.4773963 0.08917208 0.07678934 0.044457007
000220 d9 fd 00 be fd 54 f0 3c 7a b3 b6 bd ca 0f 7c be
       -0.12596835 0.0293374 -0.08920951 -0.24615398
000230 a7 3b 0b bf 93 91 69 3d 77 8a 0a be 04 6c de 3e
       -0.543879 0.057023596 -0.13529383 0.43441784
000240 53 51 cc be c5 01 d1 3d 50 a8 97 bc 00 5a f3 bb
       -0.39905795 0.10205416 -0.018512875 -0.0074265003
000250 06 00 98 3e f2 44 68 be c5 27 55 3e 95 0d 4c 3e
       0.29687518 -0.2268255 0.20815952 0.19927056
000260 33 0b 13 be 50 b8 e2 3e 4f 35 f7 be 97 2f a9 bb
       -0.14359741 0.44281244 -0.4828286 -0.005163144
000270 85 b3 c1 bd 4d bc 90 3d bf d3 02 3e b6 e0 c4 3d
       -0.09458069 0.070671655 0.12776087 0.09613173
000280 82 97 c8 3d ac 95 9a 3e 0f 68 b9 3e 06 1f a2 3e
       0.09794523 0.30192316 0.36212203 0.31664294
000290 74 01 5e be 13 60 e0 3e 54 3f 55 3e b6 c7 b3 bd
       -0.21680242 0.438233 0.20824939 -0.08778326
0002a0 61 44 c3 3e eb d0 12 3e 1c f2 54 3f fa f4 88 bc
       0.38138106 0.14337508 0.8318193 -0.016718376
0002b0 4a 25 87 3e 9a b5 d0 3e 0c 16 32 bf 7e 21 82 3e
       0.26395637 0.4076355 -0.6956489 0.25416178
0002c0 1c f5 be be 38 44 3d 3e 92 0c 9e 3e 45 40 24 3e
       -0.3729638 0.18483055 0.30868965 0.16040142
0002d0 91 c9 e2 3d 85 cf 5e 3f 6b 41 55 be 1c 2b 42 be
       0.11073602 0.870354 -0.20825736 -0.18961757
0002e0 52 bb 1d 3e 16 e4 cb be cd 2c db be 49 b4 12 3c
       0.15403488 -0.39822453 -0.42807618 0.008954116
0002f0 e9 31 c4 3e 9e d0 db 3e dc 9e 2a be 44 d3 09 be
       0.38319328 0.429326 -0.16662163 -0.13459498
000300 68 85 9e 3e 4a 8e 78 be 72 8a ad 3e 1e ed 9b 3d
       0.30961156 -0.24273029 0.33894688 0.07613586
000310 2d b3 a3 be 15 37 67 be ca 6f be be ae ea 5f be
       -0.31972638 -0.22579606 -0.37194663 -0.21866867
000320 54 30 91 3d 36 6b 3d be 4a 2f 71 bc 2f 85 bc be
       0.07089296 -0.18497929 -0.014720747 -0.3682036
000330 30 9b 20 bf 93 5d 8d be 25 05 cd 3d 56 9f 59 3e
       -0.627368 -0.27610454 0.10010747 0.21252188
000340 b1 57 d2 3e 60 c1 70 be b9 7a e0 be 30 13 ba 3d
       0.41082528 -0.23511267 -0.4384363 0.09085691
000350 b5 aa 5d bd 46 7c 61 3e dc e8 e1 bd ee 8a 01 be
       -0.054117877 0.22020063 -0.110307425 -0.12650654
000360 d1 96 b4 bd 50 9c 63 be 99 9d 53 3e 63 e4 b2 bd
       -0.088178284 -0.22227597 0.20665587 -0.087349676
000370 8c 13 d6 be 7c 97 33 3d 0e bc e2 be 1c 0d 85 3d
       -0.41811788 0.04384564 -0.442841 0.06496641
000380 49 50 43 3c 99 25 aa 3e 17 d5 ab 3e 71 4f 63 3e
       0.011920997 0.3323181 0.33561012 0.22198273
000390 79 c1 0b bf c6 ab 9e be b5 84 86 3d 28 73 7d bd
       -0.5459209 -0.30990428 0.065682806 -0.0618774
0003a0 17 55 1e 3d c9 78 03 bc 07 58 fe 3e 39 43 fb be
       0.038655367 -0.008024403 0.49676535 -0.49074724
0003b0 c5 72 ac be c3 b2 a6 3e d5 a2 ed 3e cb 11 47 3e
       -0.33681312 0.3255826 0.46413293 0.19440381
0003c0 f2 21 ab 3e 30 ca c4 3e ad 37 18 3d e7 83 c0 bd
       0.33424336 0.38435507 0.03716247 -0.094001584
0003d0 db f8 69 3e 0c 99 67 3e 0f 6c 05 3f 79 ae 86 3e
       0.22848837 0.22616976 0.5211801 0.26304987
0003e0 f0 18 28 be 7e dc ca bc 40 16 eb bd 57 fe 82 bd
       -0.16415763 -0.024763342 -0.11478853 -0.06396168
0003f0 46 0e 1f be cc b6 99 be 13 6b 6f 3d 87 a6 72 be
       -0.15532789 -0.30022275 0.058451723 -0.23696338

network_body.linear_encoder.seq_layers.2.bias f4 [128]
000000 61 71 d7 ba 3d eb 7e 3b 67 3b ad 39 8e 7b e4 3a
       -0.0016436988 0.0038897537 0.0003304139 0.0017431842
000010 7d 52 43 3c ee bc 91 bb fd da e1 3b b4 23 39 bb
       0.011921522 -0.004447571 0.0068925605 -0.002825004
000020 6e 0f 80 bb 69 b3 4e 39 8d 88 32 bb d6 bc b3 ba
       -0.0039080894 0.00019712526 -0.0027242035 -0.0013712894
000030 57 8f 43 bb 8a ff 11 bb 07 ae ec b9 5e bf 34 3b
       -0.0029840076 -0.0022277557 -0.00045143088 0.0027579884
000040 1a 20 35 3b 0d f5 3d bb 35 6d 64 3a 73 30 f7 3a
       0.0027637542 -0.0028985173 0.0008713783 0.0018859043
000050 44 cd a1 3a 30 e6 a2 3a ac 2c a7 3b fd a0 0d 3a
       0.0012344499 0.001242822 0.005101761 0.0005402712
000060 4f 52 db ba c7 0d 4a bb 6c a9 b9 bb 3e c2 57 bb
       -0.0016732904 -0.0030830966 -0.0056659486 -0.0032922174
000070 d0 91 a9 b8 f8 5f 56 bb 16 a9 9a b9 a8 90 f1 ba
       -8.085708e-05 -0.003271101 -0.00029499148 -0.0018429952
000080 f7 77 af ba 86 92 ba 3a f7 7d 7a ba cd 12 de 3b
       -0.0013387193 0.0014234341 -0.00095555134 0.0067771436
000090 a8 b7 ba 3b 27 28 dc 3b 6f 22 ca ba c0 ca bf 39
       0.005698163 0.0067186537 -0.0015421639 0.0003658142
0000a0 f1 b6 e0 ba 62 aa b6 bb ec d4 9b 3b 6f 1f 91 3a
       -0.0017144365 -0.0055745104 0.004755607 0.001107199
0000b0 cf 22 06 bb 18 3e c6 3a 33 44 f8 3b 36 64 fd b9
       -0.0020467525 0.0015124707 0.0075764894 -0.00048330583
0000c0 48 bd 6b bb 6e b2 89 3b b1 5f c7 3b e4 a6 0c bb
       -0.0035970975 0.0042021787 0.0060844054 -0.002146178
0000d0 5e e3 03 ba d4 a6 db b9 95 7a 81 bb 75 a6 1b bb
       -0.0005031134 -0.00041895232 -0.0039513805 -0.002375034
0000e0 9d 85 4a 3b 24 77 97 b9 38 12 19 3c 4f ef 96 bb
       0.0030902394 -0.0002888973 0.009342723 -0.0046061645
0000f0 21 37 0c 3c b9 6d f6 3a bb 82 f0 ba e1 f2 33 3a
       0.008558066 0.001880101 -0.0018349508 0.00068645
000100 7b 0f c7 3b cb 2f a9 3a 9f eb d3 ba 02 fe 04 b9
       0.0060748435 0.001290792 -0.0016168243 -0.00012683126
000110 4f 12 3e 3b 5d cb 03 bc 15 45 2c ba 62 05 4b bb
       0.0029002612 -0.008044091 -0.00065715733 -0.003097855
000120 e8 80 1b bb 23 40 43 bb 62 12 8c 3b 95 cc bf ba
       -0.0023727957 -0.0029792867 0.0042746523 -0.0014633114
000130 e2 57 8e bb 3c d2 6c bb 14 ca 6b bb d8 4e bb ba
       -0.0043439725 -0.0036136052 -0.0035978602 -0.0014290465
000140 f9 64 a9 3b d5 b0 3b 3b ae 0c 21 bb d0 5f bf ba
       0.0051695076 0.0028639336 -0.0024574208 -0.0014600698
000150 c4 95 e0 ba 8a c4 59 bb 48 4e 7a 3b 01 48 34 3b
       -0.0017134477 -0.0033228719 0.0038193632 0.0027508738
000160 1e 22 2f bb 29 13 89 bb 9a 31 f4 ba 4a 23 cd 3b
       -0.0026723216 -0.0041831923 -0.0018630505 0.0062603103
000170 e0 44 90 ba 92 1a 1f bb 59 89 a8 bb ab 24 fe 3a
       -0.0011006854 -0.0024277312 -0.0051433262 0.001938959
000180 c9 6f fc 3a 75 24 b1 bb 83 3f 61 bb 0f 2c 9f bb
       0.0019259389 -0.0054059573 -0.0034370131 -0.004857547
000190 c7 3c 8a ba 7c 8a 31 bb 2e 55 f9 bb a1 b4 54 3b
       -0.0010546678 -0.00270906 -0.007609031 0.0032456296
0001a0 bf 2a e5 bb 94 7b 67 3c 3b aa 75 bb 53 15 4d bb
       -0.006993621 0.014128584 -0.0037485498 -0.0031293228
0001b0 54 c5 8b 39 b2 e1 62 bc 53 40 af 3b 45 03 05 3c
       0.00026659167 -0.013847755 0.005348244 0.008118455
0001c0 de 4e ff 3b 59 75 a1 bb 76 c8 11 3b 31 f8 67 bb
       0.007791384 -0.004927319 0.0022244728 -0.0035395736
0001d0 40 7d b0 bb 57 2a 11 3c 31 5d 5d 39 58 cb 4d 3b
       -0.0053860247 0.008860192 0.00021110919 0.003140172
0001e0 ea e5 ce ba 3c 27 41 ba b4 54 a9 ba fb 54 77 3a
       -0.0015785072 -0.0007368212 -0.001291892 0.00094349653
0001f0 bc e2 05 bb a9 81 24 3b c0 4c 0b bc 41 e9 1e 3c
       -0.0020429334 0.0025101698 -0.008502185 0.009699167

network_body.linear_encoder.seq_layers.2.weight f4 [128, 128]
000000 90 c9 75 bd db e7 52 3d f8 9a 2b be d3 fd 70 3d
       -0.060006678 0.051490646 -0.16758335 0.058835816
000010 fb 7a a9 bd 3a 98 32 3c 13 20 a5 bd a0 e7 15 3d
       -0.0827541 0.010900551 -0.08062758 0.036597848
000020 dc 6b 06 3c 24 0f 34 bd 29 21 b1 3d 0c ad e0 3c
       0.008204427 -0.04395975 0.08648903 0.027426265
000030 c1 b9 bd 3a 7f af 8d bc a8 49 f3 3c 92 72 15 3d
       0.0014474915 -0.017295597 0.029698208 0.036486216
000040 f9 73 1e bb a5 fd c5 3d d8 05 f8 3c 7a 21 41 3d
       -0.0024178012 0.096675195 0.030276224 0.047151066
000050 d1 93 54 bd 85 0e 05 bd 9d 1f 12 bd d2 32 09 3d
       -0.05189878 -0.03248455 -0.03567468 0.03349573
000060 99 40 71 bd 7a 9e de bb e9 45 2a 3e d8 e0 1f bd
       -0.058899496 -0.006793794 0.16628231 -0.039032787
000070 b4 4d 9c 3d f2 9e f7 bc 21 c2 5f bd ac ed 9e 3d
       0.07632008 -0.030227158 -0.054628495 0.07760176
000080 96 d0 89 bd ea 00 c5 3d e8 40 4c 3d 9d 63 da 3c
       -0.06729238 0.09619315 0.049866587 0.026658827
000090 45 7c 17 bd 54 46 b7 3d 3c e1 19 bc f7 a4 ae 3d
       -0.036983747 0.08948961 -0.009392079 0.08527558
0000a0 cb 5a b3 bc 5f 2e eb 3c d3 33 6f be 62 3b 2d 3e
       -0.02189388 0.028708635 -0.23359613 0.16917184
0000b0 2c 32 09 3e 39 68 8d 3d 9c 25 a2 be 32 4c e2 bd
       0.13398045 0.069046445 -0.3166932 -0.11049689
0000c0 f7 a0 99 3d a8 9e 92 3d f5 d1 aa bc 91 58 0e 3d
       0.07501405 0.071591675 -0.020852068 0.034752432
0000d0 7d 51 5b bc c4 30 f2 bd 0a bb f6 3d 56 53 88 3d
       -0.013386128 -0.118257076 0.120473936 0.0665652
0000e0 83 a2 60 be 3f 9a e3 bb 7d 7a 1d bd 65 4d ce 3d
       -0.21936993 -0.006945878 -0.038446892 0.100733556
0000f0 11 e5 8a bd a3 8d e3 3d f4 47 ff bd 5a 35 5c bc
       -0.06781972 0.111109994 -0.12464896 -0.013440454
000100 c5 42 34 3d 77 94 89 bd fb ec b0 bc 52 f4 6d bc
       0.04400899 -0.067177705 -0.021597376 -0.0145235825
000110 15 32 8c bd 7b 13 6c 3d d6 db 13 3d 33 83 89 bd
       -0.0684549 0.057635766 0.036098324 -0.067144774
000120 99 e2 34 3c c3 22 6c 3d 7f 28 30 bd 68 13 33 3d
       0.011040353 0.05765034 -0.04300737 0.04371968
000130 46 66 6e bd 4b 3d 95 bd 0e 49 d0 ba d2 bc 0e 3e
       -0.058203004 -0.07287081 -0.0015890913 0.13939217
000140 d5 99 3a 3d 93 6f d5 3d fe 4a 13 3c dc df f4 3c
       0.045556862 0.10421672 0.0089900475 0.0298919
000150 a4 e1 49 be f0 22 f4 3c 7e 1c bc 3c 18 66 05 3e
       -0.19714981 0.029801816 0.022962805 0.13027227
000160 60 89 77 3d fe a0 4f bd 61 7a 6b bd ca 97 03 3e
       0.060433745 -0.050690643 -0.057489756 0.12850872
000170 ed 3d 02 3d ea bc 78 bd 79 4c e8 bd 3a ed 80 bd
       0.03179734 -0.060727037 -0.11342711 -0.062952474
000180 b9 9e 53 bd c7 12 49 be 2e eb 9f 3c ae e2 32 be
       -0.05166504 -0.19636069 0.019521322 -0.17469284
000190 0d d6 a0 bd 19 7d f5 3b 49 32 27 3d 50 60 68 3d
       -0.07853327 0.0074917194 0.04081944 0.056732476
0001a0 98 2f 7e bc a7 1c 42 be cd b3 ce 3d d6 90 ab bd
       -0.015514277 -0.18956243 0.10092888 -0.08377235
0001b0 b4 5b c6 bd 27 10 22 be 21 63 10 3e 5b 06 0d 3d
       -0.0968546 -0.15826474 0.14100315 0.03442989
0001c0 03 e8 27 be 41 f0 c1 3d 9a 3c 9e 3d 2f bf 09 bd
       -0.16397099 0.09469653 0.077264026 -0.033629593
0001d0 12 52 77 be c2 5e ba 3d 50 42 42 bd e3 95 05 be
       -0.24152401 0.09100105 -0.04742652 -0.13045458
0001e0 21 ae 40 bd 68 4a b3 bd 3c 28 99 3c 3a bb d0 bd
       -0.047041062 -0.08754426 0.018695943 -0.10191961
0001f0 b2 be a9 3d d0 06 1c 3d 5b 7a f5 3d 25 15 a5 bc
       0.08288325 0.038092434 0.11986228 -0.020151684
000200 6e ff bf 3d 11 ee 81 3d 19 5a 4a 3e 03 11 8b 3d
       0.09374891 0.06344236 0.19760932 0.06790354
000210 fd 1a 04 3e 9b 29 a4 3d 13 5d fa 3d 51 72 ab 3d
       0.1290092 0.08015748 0.12224784 0.083714135
000220 07 f7 e0 bb d8 a1 fd bd 4b bd 2a 3d 57 f0 19 be
       -0.0068653855 -0.12384385 0.04168443 -0.15033089
000230 c0 19 eb bc c6 5d 04 be 77 7d ce 3d 7c 0d 7b 3d
       -0.028698802 -0.12926397 0.10082524 0.061292157
000240 44 9d 9f bd 86 40 92 bd 27 d4 74 3d 6a 29 1c 3d
       -0.07793668 -0.07141213 0.059772637 0.038125433
000250 36 44 d5 bd cf f1 f0 bd 4d 81 22 3b 75 43 2e bc
       -0.10413401 -0.11764871 0.0024796308 -0.0106362
000260 26 5e 2e 3c c1 b0 13 be ca 97 e8 3d fb 20 56 bc
       0.010642564 -0.14422895 0.113570765 -0.013069387
000270 59 22 9a bd e8 d5 10 be 41 57 38 3d 68 8a 92 bd
       -0.075260825 -0.14144099 0.045005087 -0.07155305
000280 de 70 f4 bc 72 25 5a bd 65 dc 45 3d 29 a1 34 3c
       -0.029838976 -0.053258367 0.048305888 0.011024752
000290 84 61 a5 3c bb 4a 15 3d e2 15 20 3c f0 bf 05 bd
       0.0201881 0.03644822 0.009770842 -0.03265375
0002a0 55 ed 96 bd 3d 06 20 3d d7 e9 2a bd 04 e6 ca 3d
       -0.07369486 0.03906845 -0.041726913 0.09907153
0002b0 2b 13 38 bd 95 fe 3e bd 79 96 b4 bd 69 29 9a 3d
       -0.044940155 -0.046629507 -0.08817763 0.075274296
0002c0 4e ba ed bd 5e 97 27 3d 7d e4 35 3e 89 b5 1d 3e
       -0.116078004 0.04091584 0.17762943 0.15401281
0002d0 fb 86 4e bd 53 95 37 3d 17 47 ed bd 22 78 06 3e
       -0.050421696 0.04482014 -0.11585825 0.13131765
0002e0 f7 8f ae 3c 16 79 b8 bd d4 ab 04 3e e0 59 d4 3c
       0.021308882 -0.0900747 0.12956172 0.025921762
0002f0 50 f2 0d bd 0e de 4d bd 03 ff 5e bc 26 5b 95 bd
       -0.034654915 -0.050260596 -0.013610604 -0.07292776
000300 83 8e 3f 3d 5b 33 56 3c 07 2e 23 3e 41 54 0d bd
       0.04676677 0.013073768 0.15935527 -0.03450418
000310 1a 6d 22 3c 2f 0f e7 3c fc 19 a0 3d b5 41 a5 3d
       0.009913707 0.028205482 0.07817456 0.08069173
000320 f5 45 cc bd 45 aa 87 3b 8f 3c c6 bd e8 a7 b7 3c
       -0.09974281 0.0041401708 -0.096795194 0.022418931
000330 c3 a1 a9 3d 04 ed a7 bd 16 d6 88 bd 2c d7 40 bd
       0.08282807 -0.08199504 -0.06681459 -0.047080204
000340 ac 17 d3 bc f5 e7 ea 3d 3e 6c 6a 3d f9 18 94 3d
       -0.025768124 0.114700235 0.057232134 0.07231326
000350 42 b5 f9 bc d0 4e bf bd b5 d9 2c 3e f6 d1 28 be
       -0.030481938 -0.09341204 0.16879924 -0.16486344
000360 ef 78 a1 bd d7 3f 2e be 11 cb 8e bd 80 3e 00 3e
       -0.078843944 -0.1701654 -0.069723256 0.12523842
000370 b1 5c dd 3d 27 28 8f 3d f9 cf 40 bc be db 04 3c
       0.10808695 0.0699008 -0.011768335 0.008109031
000380 ae 31 19 3e 0f 99 c1 bd 14 c5 b5 3d a6 54 81 3d
       0.14960358 -0.09453022 0.0887548 0.063149735
000390 49 db 8c 3b 1c f4 0f bc 19 ee 94 3c b2 6b 10 3d
       0.0042986018 -0.008786228 0.01817994 0.035258956
0003a0 7b 58 10 3d f7 5b 39 bd 6e 41 ba bd fe 81 9a 3d
       0.03524063 -0.04525372 -0.09094511 0.07544325
0003b0 0f c7 3a 3d 98 2c ed bd 28 f8 45 be 9a 4a b0 bd
       0.045599993 -0.11580771 -0.19332945 -0.08607979
0003c0 b5 c5 e4 3c 43 78 07 be b4 b1 32 3d 7e 2c bb 38
       0.027926305 -0.1322947 0.043626502 8.925142e-05
0003d0 aa 0b 53 bc d3 a1 37 3e 20 8e 25 3d de 02 4f 3c
       -0.012881199 0.17932825 0.040418744 0.012634961
0003e0 57 27 a1 3d f8 97 23 bc 02 ef d6 3d c8 8b 2e bd
       0.078688316 -0.009984963 0.10494806 -0.042613775
0003f0 10 a6 b3 bd 07 ee 03 be 2d cf cd 3d 05 24 df 3c
       -0.08771908 -0.12883769 0.10049281 0.027238855
