Assets/ML-Agents/Brains/Volleyball/VolleyLondWek.onnx (onnx, 303809 bytes, 9 tensors)

62 f4 [30]
0.048437927 0.046707578 0.47235277 0.25815085 0.47317225 0.25704244 0.48900026 0.45062178
0.48983696 0.45162812 0.0045454134 0.097238414 0.0035508212 0.09852514 0.0035997867 0.09851509
0.027915847 0.10362313 0.026970878 0.10388193 0.0609101 0.106958285 0.062035747 0.106465705
1.4789276 8.172105 1.355975 1.6057419 8.346213 1.4765675
00000000: d966 463d 7250 3f3d 39d8 f13e 592c 843e
00000010: a243 f23e 119b 833e 3e5e fa3e e6b7 e63e
00000020: e9cb fa3e cd3b e73e b1f1 943b ef24 c73d
00000030: e5b4 683b 8cc7 c93d 66ea 6b3b 48c2 c93d
00000040: c6af e43c 5d38 d43d 08f2 dc3c 0dc0 d43d
00000050: de7c 793d f20c db3d 3219 7e3d b10a da3d
00000060: 804d bd3f f1c0 0241 9790 ad3f f388 cd3f
00000070: 178a 0541 2a00 bd3f

action_model._continuous_distribution.log_sigma f4 [1, 6]
-0.2439243 -0.21451995 -0.139704 -0.11370004 -0.095214516 -0.069605894
00000000: 4bc7 79be 1eab 5bbe 910e 0fbe 91db e8bd
00000010: d4ff c2bd 898d 8ebd

action_model._continuous_distribution.mu.bias f4 [6]
-0.038650516 -0.018949345 0.017639259 -0.0019109638 -0.0006406579 0.0015936056
00000000: 0150 1ebd a83b 9bbc 3580 903c 4e79 faba
00000010: d3f1 27ba 88e0 d03a

action_model._continuous_distribution.mu.weight f4 [6, 256]
0.021180712 0.029564293 -0.021674877 0.025702935 -0.0055110264 0.042193443 0.019556055 0.027719881
0.017958062 0.0019879101 0.0039479937 0.024393192 -0.003039545 0.020788673 -0.002014048 -0.034668587
-0.038429074 0.027420362 -0.024660612 -0.028569076 -0.017860359 -0.027354414 0.026206153 -0.006903668
0.012909874 0.017127642 -0.027642194 0.018492306 0.05106838 -0.0077317054 -0.010825348 0.019219121
-0.06718743 0.02507138 0.0102358125 0.018472323 -0.0031196855 -0.019362856 0.008598878 0.009928998
0.01373791 0.0010021522 -0.008598371 -0.018747007 -0.018030828 -0.07414651 0.0479594 0.007908246
-0.01519953 -0.00031911628 0.018042658 -0.0070239417 0.04376966 -0.0010359469 0.02068471 0.014267587
0.023334727 -0.037700444 0.00897759 0.027724376 0.011508994 0.0625583 0.031735677 0.015053624
0.03206911 0.014063338 0.043264426 0.013364868 0.036912084 -0.050431546 -0.011080358 -0.018659081
0.012961937 0.01152624 0.0008386388 -0.0058829044 -0.013800348 -0.054524086 0.057175033 0.02218466
0.030608349 0.039468735 0.0021648733 0.009831787 -0.033734553 0.06403201 0.015733982 -0.006384879
0.01707829 -0.0027794328 0.014110752 -0.013631513 0.008897801 -0.018501798 0.023232937 -0.0062461244
0.03207115 -0.015086354 -0.016608892 0.029638909 -0.019603511 0.032881275 0.061832733 -0.015194559
-0.007455393 -0.021028247 -0.044301797 0.0025467651 0.040738385 0.014348236 -0.010773443 -0.020220362
-0.007754383 -0.039766952 -0.031633016 -0.023411304 -0.017353449 0.052698538 -0.01387292 0.012972388
-0.027195847 -0.035769902 0.018568723 0.009802509 0.061154015 0.022342619 0.038274236 0.056280933
-0.039486293 -0.029730348 0.0027164996 0.010104627 0.024827892 -0.034872808 -0.0063580396 -0.020827888
0.020082852 -0.0166625 -0.021298075 0.018327264 0.0056760856 -0.016706204 -0.018510463 0.017105786
0.04077376 -0.0076814443 -0.009887752 -0.0322687 -0.0066952375 -0.037836652 0.010059907 -0.034564324
0.054117717 0.011895746 0.014514769 0.01301768 0.016620124 -0.03559075 -0.041652393 -0.04110587
-0.047096416 -0.005811361 0.012607546 -0.0017166135 0.03327076 -0.013681372 0.03993284 -0.009143433
-0.0046128556 0.023043472 0.014223458 0.013718688 -0.045809712 -0.047937408 -0.02790827 0.007822755
-0.021184625 -0.030192459 -0.043001838 0.020192401 0.0403323 -0.017395837 0.037179917 0.0340983
-0.005664452 0.041250538 0.01717483 0.008327055 0.007604987 0.0022600226 -0.031372704 0.027423067
-0.020625211 0.004633851 0.05333939 -0.00065683364 0.015922584 0.0009340498 -0.002709484 -0.04353549
0.04394196 0.042630658 -0.010216019 -0.029542178 0.01847946 -0.035198282 0.021201309 0.021361778
0.017214783 0.013260994 0.00063990353 -0.0077979537 -0.012769755 -0.01130622 -0.0065882294 0.0044627097
-0.029509779 -0.038236547 -0.0010459725 -0.00032883155 0.0006065016 0.0048724455 -0.024063176 -0.05330217
0.009151223 -0.006880244 -0.010096405 0.01611859 -0.024783578 0.036506217 -0.03433221 -0.0061157113
0.014266987 0.010366666 -0.032391984 -0.032195926 -0.02572759 -0.008654329 -0.00830641 -0.009870975
0.052410163 -0.03060842 -0.04733769 -0.063213356 0.009040837 -0.03557519 0.040934484 -0.007375363
0.0083647305 -0.038396258 0.00080932816 -0.038639557 0.0383717 -0.048870746 0.0065150303 0.026891857
00000000: 2c83 ad3c d130 f23c 838f b1bc f68e d23c
00000010: d795 b4bb 08d3 2c3d 0534 a03c ce14 e33c
00000020: c91c 933c 9947 023b 2c5e 813b 3bd4 c73c
00000030: 1a33 47bb 024d aa3c 1efe 03bb a600 0ebd
00000040: ce67 1dbd aba0 e03c 0d05 cabc b209 eabc
00000050: e34f 92bc 5d16 e0bc 49ae d63c 2a38 e2bb
00000060: f083 533c 454f 8c3c e271 e2bc 2d7d 973c
00000070: 142d 513d 3f5a fdbb cd5c 31bc 6b71 9d3c
00000080: 9099 89bd 7f62 cd3c 1cb4 273c 4553 973c
00000090: a373 4cbb da9e 9ebc 4fe2 0c3c 3cad 223c
000000a0: f914 613c a65a 833a 2fe0 0cbc 5393 99bc
000000b0: 63b5 93bc 20da 97bd 1371 443d 9691 013c
000000c0: 7307 79bc 104f a7b9 32ce 933c 1829 e6bb
000000d0: d147 333d 9cc8 87ba fb72 a93c 99c2 693c
000000e0: 7828 bf3c c86b 1abd be16 133c 3b1e e33c
000000f0: 3890 3c3c 911e 803d 45fd 013d 7aa3 763c
00000100: e65a 033d ea69 663c 0a36 313d 52f8 5a3c
00000110: 2031 173d 4f91 4ebd 648a 35bc eeda 98bc
00000120: 4e5e 543c 8ed8 3c3c 19d8 5b3a 61c5 c0bb
00000130: db1a 62bc a654 5fbd 5e30 6a3d 9bbc b53c
00000140: 5cbe fa3c f8a9 213d 8ce0 0d3b 8115 213c
00000150: 3e2d 0abd 3723 833d 8de4 803c 3f38 d1bb
00000160: c5e7 8b3c 2527 36bb c930 673c b656 5fbc
00000170: 15c8 113c 1591 97bc 0053 be3c 4aac ccbb
00000180: 0a5d 033d c12c 77bc 5f0f 88bc 4ccd f23c
00000190: 8b97 a0bc 84ae 063d 5244 7d3d 99f2 78bc
000001a0: 5f4c f4bb 6e43 acbc cd75 35bd a1e7 263b
000001b0: 4bdd 263d dd14 6b3c 1883 30bc 2ca5 a5bc
000001c0: 7b18 febb ace2 22bd 9f91 01bd 10c9 bfbc
000001d0: d228 8ebc 6cda 573d 3e4b 63bc 248a 543c
000001e0: d3c9 debc 7683 12bd 6f1d 983c b49a 203c
000001f0: a27c 7a3d de07 b73c 72c5 1c3d d686 663d
00000200: 61bc 21bd 0f8d f3bc 4d07 323b e18d 253c
00000210: dd63 cb3c cad6 0ebd 1a57 d0bb 3f9f aabc
00000220: cb84 a43c cc7f 88bc 4d79 aebc 0f23 963c
00000230: 75fe b93b 73db 88bc 41a3 97bc 6f21 8c3c
00000240: 6302 273d a0b4 fbbb 3d00 22bc 2f2c 04bd
00000250: b963 dbbb 9bfa 1abd 4fd2 243c 5293 0dbd
00000260: 8aaa 5d3d 60e6 423c 5bcf 6d3c 1b48 553c
00000270: ed26 883c 9bc7 11bd b39b 2abd a15e 28bd
00000280: 2ce8 40bd 3b6d bebb e18f 4e3c feff e0ba
00000290: ec46 083d d527 60bc 9e90 233d 56ce 15bc
000002a0: 7027 97bb aac5 bc3c 8209 693c 59c4 603c
000002b0: f7a2 3bbd 045a 44bd e29f e4bc 032b 003c
000002c0: 618b adbc 2d56 f7bc b222 30bd 896a a53c
000002d0: 7b33 253d b781 8ebc f849 183d a9aa 0b3d
000002e0: de9c b9bb 53f6 283d 3bb2 8c3c 336e 083c
000002f0: 4133 f93b e31c 143b aa80 00bd 57a6 e03c
00000300: 34f6 a8bc 8fd7 973b 677a 5a3d 5c2f 2cba
00000310: 1470 823c 05db 743a 9991 31bb 4552 32bd
00000320: 7cfc 333d 7c9d 2e3d 1761 27bc 7002 f2bc
00000330: 3d62 973c 132c 10bd 5eae ad3c e5fe ae3c
00000340: 0406 8d3c a444 593c 33bf 273a fa85 ffbb
00000350: 3c38 51bc b93d 39bc 13e2 d7bb ec3b 923b
00000360: 7ebe f1bc ed9d 1cbd 0319 89ba 0667 acb9
00000370: a2fd 1e3a 09a9 9f3b 2320 c5bc 6053 5abd
00000380: 03ef 153c ab73 e1bb 646b 25bc 220b 843c
00000390: ee06 cbbc 8b87 153d ee9f 0cbd 4e66 c8bb
000003a0: 15c0 693c f3d8 293c 75ad 04bd e0df 03bd
000003b0: abc2 d2bc e3ca 0dbc 9c17 08bc dfb9 21bc
000003c0: 0aac 563d 82be fabc 2ae5 41bd 0176 81bd
000003d0: 0520 143c 4ab7 11bd ebaa 273d 07ad f1bb
000003e0: 390c 093c 6545 1dbd 1829 543a 8344 1ebd
000003f0: a52b 1d3d b12c 48bd 097c d53b 504c dc3c

network_body.linear_encoder.seq_layers.0.bias f4 [256]
-0.0006579309 0.0028695075 0.010152825 -0.030071078 -0.026753593 0.0017205164 -0.0074596456 0.011326606
-0.0018684872 -0.013608326 0.01872302 0.022080198 -0.007172333 0.010392728 0.01582505 0.011458673
-0.0057278764 -0.0051998543 -0.02547579 -0.021007037 -0.017452382 0.0010334074 0.016707903 0.019966349
-0.010870854 -0.024708444 -0.007827825 0.019617928 0.018240696 -0.020912096 -0.0045337724 -0.027886787
-0.013472492 -0.032594897 -0.005158962 0.016269598 -0.0035431182 -0.00094780757 0.017937917 -0.029936738
0.0017212331 0.019272191 0.0012191643 -0.0014887499 0.008068169 0.02118741 -0.008592419 0.0080799395
0.019193431 -0.0121542 0.008446935 0.038735747 -0.028525362 -0.034578886 0.011507775 0.02302389
0.011310136 -0.003276584 -0.023590533 0.024379613 -0.0036315108 0.013311931 -0.0026998788 -0.004719625
-0.010699528 0.007888576 -0.012194929 0.017416913 -0.017685622 0.022029713 0.036010146 -0.011199096
-0.015235513 -0.005137244 -0.013089803 0.0062919273 -0.012436548 0.007369257 -0.010896142 0.010902438
-0.018197661 0.030913958 0.04505048 0.01452032 -0.019084856 0.02106332 0.0043329224 0.013097676
0.0013927062 0.013866086 -0.0037388266 0.014799761 0.032398768 0.0025757675 -0.0042057354 -0.020401182
-0.028787449 -0.0033446252 -0.0011486673 0.015822874 0.03317261 -0.028663626 0.00034972437 -0.00890775
-0.0040033874 0.0154109895 -0.0012343649 0.017801145 -0.011481875 0.007954286 -0.010390908 0.022946727
0.019273344 0.00047359153 0.015312938 -0.0056910277 -0.0107474625 0.0044236737 -0.0048489566 -0.022207422
-0.026524032 -0.011450636 -0.0041771545 0.018368455 -0.015192844 -0.0033930743 0.004544985 -0.006815188
0.010894393 0.013157388 -0.015073507 0.024688335 -0.010924621 -0.024654843 0.0056801965 -0.012309987
-0.024371361 0.0093035465 -0.0005284604 -0.035623632 0.017892325 0.0032216301 0.030146688 0.013158013
-0.009929304 -0.0141722 -0.000340167 -0.028870331 0.016719114 0.013425314 0.0522867 0.0037755284
0.034797795 -0.014302952 0.009266943 0.021117307 0.02363673 0.0064039333 0.015287231 0.027481573
-0.015711524 -0.030733466 -0.006277926 -0.0041827937 -0.015806098 -0.01550227 -0.016632093 0.022442227
-0.000772208 -0.009139894 0.022677766 0.021494163 0.01666076 -0.009876779 -0.0024550383 -0.028349357
-0.023581987 -0.025783444 -0.01853012 0.0041732024 0.012973329 -0.009992195 -0.001385218 -0.024724998
0.003004946 0.013877071 -0.0017887765 0.0179336 -0.030340897 -0.004454186 -0.039091147 0.0047033913
0.025056707 0.03229921 0.010099832 -0.008378866 -0.0020619868 -0.025814138 -0.02048339 -0.0046437024
0.03617648 -0.0005845085 0.008499639 0.0070303874 0.006656821 0.0059981244 -0.0012380648 -0.004309682
-7.214107e-05 -0.0015862418 -0.017937744 0.010987812 0.01287539 0.019683965 -0.0036084806 0.024065228
0.0032376181 0.005138231 -0.006862885 0.03992426 -0.011262459 0.03910556 -0.02084326 -0.0025486245
0.006979463 -0.0012987859 -0.005496899 -0.0058673 0.006201476 0.025295027 0.02677637 0.011544339
-0.0013202725 0.0093162395 -0.014420361 -0.0011450371 0.01819897 0.028920706 -0.014563503 -0.028594323
-0.010378152 0.020048708 -0.011116737 0.025121022 0.015941959 -0.012344187 -0.035018012 0.020406242
0.010998366 0.0056430264 -0.010687433 -0.032324396 -0.01048947 0.0010801099 -0.004783493 0.035829343
00000000: ff78 2cba 590e 3c3b 0958 263c 9f57 f6bc
00000010: 5a2a dbbc f382 e13a 0b70 f4bb 3b93 393c
00000020: 07e8 f4ba 75f5 5ebc 0561 993c 88e1 b43c
00000030: e405 ebbb 4346 2a3c 89a3 813c 28bd 3b3c
00000040: e9b0 bbbb 8a63 aabb 9bb2 d0bc f316 acbc
00000050: 4cf8 8ebc 6673 873a 03df 883c 7890 a33c
00000060: ab1b 32bc 5d69 cabc 4740 00bc c7b5 a03c
00000070: 836d 953c d84f abbc 0a90 94bb d572 e4bc
00000080: babb 5cbc 3a82 05bd 830c a9bb d247 853c
00000090: a933 68bb 4a76 78ba 8af2 923c e43d f5bc
000000a0: 009b e13a b7e0 9d3c 5ecc 9f3a 2822 c3ba
000000b0: 5a30 043c 3891 ad3c 38c7 0cbc b961 043c
000000c0: 8b3b 9d3c 6922 47bc 0365 0a3c 60a9 1e3d
000000d0: 05ae e9bc 97a2 0dbd 1b8b 3c3c 999c bc3c
000000e0: 264e 393c f5bb 56bb ef40 c1bc c1b7 c73c
000000f0: a4fe 6dbb 491a 5a3c 73f0 30bb 16a7 9abb
00000100: 134d 2fbc 163f 013c 3dcd 47bc eaad 8e3c
00000110: 70e1 90bc a877 b43c 607f 133d 6a7c 37bc
00000120: 609e 79bc 5356 a8bb 9d76 56bc 832c ce3b
00000130: aac2 4bbc cf79 f13b bb85 32bc 24a0 323c
00000140: 4313 95bc 453f fd3c da86 383d a3e6 6d3c
00000150: d857 9cbc fc8c ac3c 30fb 8d3b a397 563c
00000160: 778b b63a 942e 633c 1a07 75bb b27a 723c
00000170: 92b4 043d 35ce 283b 44d0 89bb 6120 a7bc
00000180: a8d3 ebbc 8031 5bbb e18e 96ba f99e 813c
00000190: 01e0 073d fbcf eabc 365b b739 d0f1 11bc
000001a0: d92e 83bb 607e 7c3c 6aca a1ba b5d3 913c
000001b0: 791e 3cbc b252 023c a13e 2abc c6fa bb3c
000001c0: 22e3 9d3c 614c f839 1ee3 7a3c cd7b babb
000001d0: 2016 30bc 77f4 903b ffe3 9ebb 57ec b5bc
000001e0: ed48 d9bc 739b 3bbc 83e0 88bb 7179 963c
000001f0: 68eb 78bc 575e 5ebb 19ee 943b f151 dfbb
00000200: 657e 323c 1692 573c dff6 76bc 313f ca3c
00000210: 2efd 32bc f4f8 c9bc f120 ba3b d4af 49bc
00000220: 73a6 c7bc e76d 183c 6188 0aba 16ea 11bd
00000230: ed92 923c fc21 533b 30f6 f63c b594 573c
00000240: 85ae 22bc 8432 68bc 7158 b2b9 7981 ecbc
00000250: 86f6 883c d9f5 5b3c 942a 563d db6e 773b
00000260: 2288 0e3d ee56 6abc 60d4 173c 34fe ac3c
00000270: d1a1 c13c 16d8 d13b 4b77 7a3c 0921 e13c
00000280: 74b5 80bc c0c4 fbbc 0fb7 cdbb d10f 89bb
00000290: ca7b 81bc 3cfd 7dbc 0740 88bc c3d8 b73c
000002a0: 006e 4aba 7ebf 15bc b9c6 b93c 8714 b03c
000002b0: 257c 883c 37d2 21bc b5e4 20bb e93c e8bc
000002c0: 032f c1bc cd37 d3bc 7acc 97bc 5cbf 883b
000002d0: 168e 543c 4eb6 23bc 3490 b5ba 148c cabc
000002e0: a1ee 443b a85c 633c 6175 eaba 7ce9 923c
000002f0: 798d f8bc 6cf4 91bb 0a1e 20bd e81e 9a3b
00000300: b943 cd3c 2d4c 043d c479 253c 8347 09bc
00000310: 6622 07bb 2c78 d3bc c8cc a7bc 332a 98bb
00000320: ca2d 143d b439 19ba 1242 0b3c 2a5f e63b
00000330: 7621 da3b ea8b c43b 9046 a2ba 3c38 8dbb
00000340: 714a 97b8 71e9 cfba 2df2 92bc 3906 343c
00000350: 4df3 523c 4440 a13c 427c 6cbb 7124 c53c
00000360: 382e 543b 9b5e a83b 0de2 e0bb 9f87 233d
00000370: 2d86 38bc 272d 203d 7cbf aabc d306 27bb
00000380: fbb3 e43b 063c aaba 551f b4bb 7b42 c0bb
00000390: c035 cb3b 8437 cf3c 1e5a db3c 7824 3d3c
000003a0: fe0c adba 24a3 183c 6143 6cbc 1215 96ba
000003b0: 0216 953c 1eeb ec3c c29b 6ebc a43e eabc
000003c0: 2009 2abc 303d a43c f922 36bc 9aca cd3c
000003d0: b698 823c 463f 4abc 0c6f 0fbd fe2a a73c
000003e0: 7e32 343c 23e9 b83b 581a 2fbc 9666 04bd
000003f0: 07dc 2bbc 7992 8d3a d9be 9cbb cac1 123d

network_body.linear_encoder.seq_layers.0.weight f4 [256, 30]
0.057880916 -0.22628921 0.21880288 0.1983175 0.02612295 -0.07497581 -0.16714187 -0.0064871735
-0.21780801 0.225474 0.22179928 -0.2493729 0.18158518 0.07964612 -0.2095774 0.16214986
0.34315398 -0.18773957 0.06455618 0.2584479 0.116796255 0.020056348 0.0016234257 0.3229788
-0.25443894 0.1936624 0.20912415 -0.2959739 0.09933677 -0.019257711 -0.51485896 0.032182604
0.26762438 0.16546611 -0.06944056 -0.052720513 -0.09830344 -0.052586522 0.20212081 0.17604437
0.011116891 -0.1333607 0.10685104 0.20491214 0.12223112 0.055333953 -0.13628806 0.08266394
-0.032998335 -0.09205894 0.27330536 0.03654056 0.108261496 -0.28827277 0.07484813 -0.048541583
-0.07965819 -0.08141652 0.34162942 -0.12168174 0.20448446 -0.18020394 0.18392833 -0.3201241
0.31943545 -0.06439405 -0.13774937 0.08858413 -0.05482084 0.2739092 -0.011035548 0.18088776
0.14878319 -0.16714472 -0.10108041 0.10973419 0.37516078 -0.3053065 0.15400615 -0.13383959
0.11469732 0.2601815 0.13800241 0.051429495 -0.17665514 -0.107673936 0.14481978 -0.045340236
0.2701842 -0.14145283 0.16301206 0.11211236 -0.080797754 -0.010008286 0.1665047 -0.18413645
-0.12155784 0.48813057 0.16981459 -0.028041217 -0.2669553 -0.2634818 -0.08868491 -0.100414895
-0.11622487 -0.035534147 -0.101203084 0.0032176592 -0.08723208 -0.10020616 0.22435234 0.07493322
-0.23253362 0.30386558 0.056686204 -0.12905034 0.098922685 -0.17673692 -0.06959117 -0.12099385
-0.013939502 0.32548398 0.007071143 0.2257684 -0.13660407 -0.17227383 -0.19591334 0.2521874
0.20277387 -0.10887023 0.1808163 -0.14334662 0.004721441 0.058110643 -0.118336104 0.18057561
0.04982885 -0.08425506 -0.2120421 0.0051246113 -0.17850281 -0.057990823 -0.07089837 -0.097516395
-0.044428665 0.007091675 0.050264575 -0.2700582 -0.19998227 -0.23344362 -0.19398189 0.2170016
-0.19920287 -0.30094814 -0.016650118 -0.017108064 0.055284183 0.027668128 -0.021058446 -0.15210254
0.1284474 -0.13840774 -0.03337249 -0.12199136 0.12100371 0.08301119 -0.12415379 0.2289279
-0.041248057 0.018086553 0.31955585 -0.036205947 -0.16645825 -0.24990855 -0.00015982524 0.2463373
-0.21596369 0.44896254 -0.035736717 -0.08264068 -0.2901871 0.15024067 0.015676579 -0.16461979
-0.11411929 -0.21550639 0.08015808 0.2473386 0.16565488 -0.11938258 -0.03739569 0.09008478
-0.050941218 0.20289284 0.21134283 -0.2626642 0.34315878 -0.102742486 0.05819173 -0.040515486
0.06934613 -0.15485798 0.09530542 -0.33213133 0.16015771 0.23543352 -0.109725356 -0.030381976
0.027019456 -0.030904086 -0.30165854 -0.2025521 -0.0376698 -0.47933996 -0.122609854 -0.070573285
-0.13567263 -0.2853981 0.054349292 0.0242651 0.5305532 -0.39631128 -0.05477448 -0.023938844
0.11947127 0.20248394 0.073708184 0.05172142 -0.12791735 -0.22185352 -0.09556527 0.20520514
0.30790576 0.2024504 0.13293114 -0.02849065 0.15215915 -0.082003094 0.09500292 0.012108062
0.147966 -0.2852714 0.08182344 0.01945409 0.29574 -0.12936445 -0.054514173 0.1266831
-0.14219965 -0.46265942 -0.089175835 -0.23219143 0.2033826 -0.24236761 0.17995536 -0.05964893
00000000: 8a14 6d3d 5cb8 67be dd0d 603e be13 4b3e
00000010: ccff d53c eb8c 99bd 3d27 2bbe 5b92 d4bb
00000020: 1009 5fbe a8e2 663e 5a1f 633e 9c5b 7fbe
00000030: 77f1 393e 811d a33d 759b 56be 9d0a 263e
00000040: e1b1 af3e cd3e 40be 0836 843d 4853 843e
00000050: e032 ef3d 364d a43c 21c9 d43a 7a5d a53e
00000060: d245 82be 704f 463e a424 563e e489 97be
00000070: 1471 cb3d 59c2 9dbc cccd 03bf e8d1 033d
00000080: 1006 893e f36f 293e da36 8ebd 77f1 57bd
00000090: 5053 c9bd f764 57bd c2f8 4e3e fa44 343e
000000a0: 9f23 363c b58f 08be b8d4 da3d 7dd4 513e
000000b0: 4f54 fa3d dba5 623d 198f 0bbe b64b a93d
000000c0: 4329 07bd 6689 bcbd aeee 8b3e 8eab 153d
000000d0: 34b8 dd3d 7d98 93be fa49 993d 8ad3 46bd
000000e0: d523 a3bd b4bd a6bd 0dea ae3e 4734 f9bd
000000f0: 6064 513e 6287 38be b557 3c3e 4ee7 a3be
00000100: 0b8d a33e 07e1 83bd 2c0e 0dbe 996b b53d
00000110: d18b 60bd d43d 8c3e 71ce 34bc a43a 393e
00000120: 9f5a 183e fc27 2bbe 3f03 cfbd 52bc e03d
00000130: 1315 c03e 2251 9cbe cab3 1d3e 3f0d 09be
00000140: 6ee6 ea3d 8236 853e 8150 0d3e bca7 523d
00000150: 16e5 34be 2784 dcbd a34b 143e afb6 39bd
00000160: 9555 8a3e 03d9 10be a2ec 263e 2a9b e53d
00000170: 4b79 a5bd cbf9 23bc 3580 2a3e 448e 3cbe
00000180: 51f3 f8bd 40ec f93e e0e3 2d3e b2b6 e5bc
00000190: 5dae 88be 16e7 86be 6fa0 b5bd 53a6 cdbd
000001a0: 4e07 eebd 418c 11bd 9043 cfbd 5ddf 523b
000001b0: bca6 b2bd e338 cdbd 9fbc 653e 9776 993d
000001c0: 4b1d 6ebe 4594 9b3e cb2f 683d c625 04be
000001d0: fa97 ca3d 86fa 34be d185 8ebd a0cb f7bd
000001e0: 8262 64bc d6a5 a63e 0cb5 e73b d52f 673e
000001f0: f0e1 0bbe 8d68 30be 829d 48be b51e 813e
00000200: f4a3 4f3e 5bf7 debd e827 393e 75c9 12be
00000210: 51b6 9a3b 6d05 6e3d 335a f2bd d0e8 383e
00000220: 5619 4c3d eb8d acbd 9021 59be 5bec a73b
00000230: 71c9 36be c987 6dbd 2a33 91bd adb6 c7bd
00000240: d5fa 35bd 4861 e83b 3ae2 4d3d 1245 8abe
00000250: 27c8 4cbe d80b 6fbe 30a3 46be ab35 5e3e
00000260: d6fb 4bbe e015 9abe d465 88bc 3626 8cbc
00000270: ab71 623d 45a8 e23c c382 acbc c5c0 1bbe
00000280: b787 033e c2ba 0dbe 98b1 08bd 9bd6 f9bd
00000290: cbd0 f73d c501 aa3d 5844 febd 136c 6a3e
000002a0: b9f3 28bd 402a 943c d39c a33e b04c 14bd
000002b0: 0874 2abe 07e8 7fbe c396 27b9 d83f 7c3e
000002c0: 9625 5dbe 6bde e53e aa60 12bd 843f a9bd
000002d0: 6793 94be b1d8 193e 2b6c 803c 1792 28be
000002e0: 60b7 e9bd b5ad 5cbe eb29 a43d 5446 7d3e
000002f0: 6fa1 293e db7e f4bd 392c 19bd 5e7e b83d
00000300: bda7 50bd 24c3 4f3e 416a 583e ec7b 86be
00000310: 82b2 af3e a76a d2bd 745a 6e3d 91f3 25bd
00000320: 5805 8e3d 1793 1ebe 7d2f c33d 1e0d aabe
00000330: 6200 243e 7c15 713e b0b7 e0bd 9fe3 f8bc
00000340: e857 dd3c 912a fdbc fd72 9abe d169 4fbe
00000350: a64b 1abd 0c6c f5be e01a fbbd ba88 90bd
00000360: c4ed 0abe b31f 92be 5d9d 5e3d 9ac7 c63c
00000370: 56d2 073f 50e9 cabe 355b 60bd 651b c4bc
00000380: 5aad f43d f357 4f3e 51f4 963d d7d9 533d
00000390: c4fc 02be 922d 63be b9b7 c3bd 4c21 523e
000003a0: d3a5 9d3e 284f 4f3e 1a1f 083e 3965 e9bc
000003b0: 9ccf 1b3e 3df1 a7bd e490 c23d e560 463c
000003c0: 6684 173e 180f 92be 0c93 a73d 2f5e 9f3c
000003d0: 3c6b 973e 1d78 04be 414a 5fbd 37b9 013e
000003e0: c99c 11be b2e1 ecbe d2a1 b6bd 97c3 6dbe
000003f0: 8743 503e 372f 78be 3846 383e 7052 74bd

network_body.linear_encoder.seq_layers.2.bias f4 [256]
-0.013680415 -0.033863652 -0.0014328622 -0.021955378 -0.025271863 -0.015164817 -0.034163978 -0.033354033
-0.009680938 -0.031235745 -0.009883202 -0.016643355 -0.005981785 -0.011229689 -0.018953323 0.010097147
0.022802725 -0.029233292 0.02408712 -0.010686866 0.013720804 0.0064155897 -0.0069268546 0.018372338
-0.015226377 0.0036659162 0.01496126 -0.008623528 -0.017256465 -0.0058391434 0.01800665 -0.019901777
0.026419664 -0.0111982385 -0.0046382723 -0.026652532 -0.011847312 0.021295663 -0.0017483421 -0.015348255
-0.006060782 -0.012829289 -0.002615947 0.01217826 -0.00019328107 0.038299218 -0.013358115 -0.0023062336
-0.012358269 0.0062153335 -0.019633885 0.0046407334 -0.013679721 -0.010783202 -0.024027305 -0.020685196
-0.0032889303 0.015371685 -0.0044544954 -0.013041682 -0.011464695 -0.022561632 -0.0228046 -0.014932021
-0.012587501 -0.00769689 -0.014487466 -0.010630009 -0.03811858 0.03261688 -0.00435347 0.02135924
-0.039504964 -0.00887542 -0.0030695845 -0.0037534302 0.018743893 0.029317562 -0.029191446 -0.015157622
-0.0152752055 0.017146327 -0.0053247176 -0.011320992 0.008538404 -0.008693502 -0.020372309 0.005627852
0.017419862 -0.013494849 -0.011523 0.008722783 0.014707769 0.0012134465 -0.0065193605 -0.00058793963
-0.022106998 -0.00018433206 -0.019246848 -0.021584762 0.004192045 -0.012647109 -0.012160545 0.004360023
-0.015191492 0.0011397563 0.03539436 -0.0055469875 -0.028241135 -0.014049492 -0.0026697859 0.016912244
0.0032943515 0.00943203 -0.0033190302 0.01777025 0.0006025522 -0.008086842 -0.009167999 -0.012875304
0.01076198 0.015556214 -0.0050366623 -0.014670404 -0.019278722 0.0034241092 -0.02481769 -0.00394283
0.0010178962 -0.0016655995 0.0013546352 -0.017802663 -0.009718818 0.009191501 0.0013124007 0.017151682
-0.025403399 0.027442848 0.02123933 -0.0112731485 -0.006246807 -0.005293007 0.0018694894 -0.026420228
0.0052644373 -0.004036427 -0.0021956372 -0.0056833043 -0.011201789 0.021971563 -0.02740562 0.018144952
-0.0021717483 -0.0072127185 -0.018819187 -0.018699704 -0.023682415 0.02241324 0.019078277 0.029993884
0.019209737 0.017119406 -0.036580365 -0.005194112 0.0065174294 0.012154968 -0.02732884 -0.011182073
0.0025298405 -0.019675115 -0.022893423 -0.0041542896 0.011443933 0.03485771 -0.008454288 -0.018860348
0.010982011 0.028806826 0.024126455 -0.0057881568 -0.028841395 0.008459364 -0.022200234 0.019238168
-0.00080528815 -0.018306501 -0.009795172 -0.030088386 -0.018345317 -0.020221949 0.015377697 -0.010017106
0.020961722 0.020319328 -0.024566485 -0.006889516 -0.012771688 -0.005513302 -0.011192856 0.023389796
-0.021157207 -0.022189453 0.026007924 0.002802102 -0.018369371 0.00779207 -0.015087497 0.010903407
0.0072951093 -0.02216925 0.0012418824 -0.017489817 0.004613028 0.0032635191 0.009321303 0.027252859
0.0016639191 0.00822651 -0.0017455618 -0.0012185299 -0.02440841 0.011404349 -0.0046590753 0.02024679
-0.015895046 0.016364245 0.0052861343 0.013647245 0.014768022 -0.020869315 0.015332578 -0.0014786934
-0.01548048 -0.00065880426 0.016083213 0.007731765 0.0071942173 -0.0005492676 -0.0040954603 0.014715618
-0.02523666 -0.0020619861 0.017411953 0.035737485 -0.0023307514 0.001994119 -0.030228857 0.0059935427
0.0044881576 0.019220259 0.011057346 0.009373619 -0.025712017 0.02999159 -0.02267759 0.0088834055
00000000: d223 60bc 9db4 0abd e1ce bbba c4db b3bc
00000010: f006 cfbc da75 78bc 87ef 0bbd 3d9e 08bd
00000020: cc9c 1ebc 1be2 ffbc 27ed 21bc a557 88bc
00000030: d902 c4bb bbfc 37bc 0044 9bbc 816e 253c
00000040: c8cc ba3c a87a efbc 5a52 c53c f717 2fbc
00000050: 39cd 603c de39 d23b abfa e2bb 9681 963c
00000060: 0e78 79bc de3f 703b 1320 753c b349 0dbc
00000070: 6e5d 8dbc 4956 bfbb af82 933c 0d09 a3bc
00000080: 0d6e d83c d178 37bc a6fc 97bb 6956 dabc
00000090: 3a1b 42bc 3e74 ae3c a028 e5ba 3f77 7bbc
000000a0: 8699 c6bb f031 52bc 4f70 2bbb 5387 473c
000000b0: 7eab 4ab9 a4df 1c3d ffdb 5abc 2e24 17bb
000000c0: 567a 4abc ffa9 cb3b 3ed7 a0bc 4b11 983b
000000d0: e920 60bc 07ac 30bc e9d4 c4bc 0074 a9bc
000000e0: 188b 57bb 85d9 7b3c 04f7 91bb c7ac 55bc
000000f0: 6bd6 3bbc 2cd3 b8bc b6d0 babc 6fa5 74bc
00000100: ce3b 4ebc 3136 fcbb d65c 6dbc 7d29 2ebc
00000110: 3a22 1cbd 4799 053d 8ea7 8ebb 93f9 ae3c
00000120: f5cf 21bd 366a 11bc 152b 49bb 1cfc 75bb
00000130: cb8c 993c 622b f03c e622 efbc ad57 78bc
00000140: db44 7abc 7476 8c3c f87a aebb af7b 39bc
00000150: a9e4 0b3c 316f 0ebc d4e3 a6bc d869 b83b
00000160: 19b4 8e3c 8019 5dbc f7ca 3cbc 01ea 0e3c
00000170: dbf8 703c 820c 9f3a 5ca0 d5bb f61f 1aba
00000180: bc19 b5bc 4349 41b9 91ab 9dbc 87d2 b0bc
00000190: 6c5d 893b d235 4fbc 063d 47bc 86de 8e3b
000001a0: bce5 78bc e063 953a adf9 103d 81c3 b5bb
000001b0: f459 e7bc d72f 66bc 93f7 2ebb 8c8b 8a3c
000001c0: 0ce6 573b cd88 1a3c 1684 59bb ea92 913c
000001d0: 98f4 1d3a ac7e 04bc 6035 16bc f0f2 52bc
000001e0: 0453 303c 7edf 7e3c 960a a5bb 225c 70bc
000001f0: 69ee 9dbc 0567 603b 784e cbbc db32 81bb
00000200: ee6a 853a 3f50 daba 048e b13a e4d6 91bc
00000210: ad3b 1fbc f397 163c dc04 ac3a af81 8c3c
00000220: ca1a d0bc d3cf e03c 1afe ad3c 03b3 38bc
00000230: 04b2 ccbb f670 adbb a809 f53a 3c6f d8bc
00000240: 4d81 ac3b 0144 84bb aee4 0fbb 033b babb
00000250: b587 37bc b5fd b33c c081 e0bc b9a4 943c
00000260: e453 0ebb ab58 ecbb b22a 9abc 1f30 99bc
00000270: a001 c2bc f99b b73c 0c4a 9c3c bcb5 f53c
00000280: bd5d 9d3c ff3d 8c3c 4bd5 15bd 5f33 aabb
00000290: 2990 d53b a225 473c bbe0 dfbc 0335 37bc
000002a0: aecb 253b b52d a1bc fd8a bbbc b520 88bb
000002b0: 557f 3b3c f5c6 0e3d db83 0abc 0481 9abc
000002c0: e5ed 333c 4bfc eb3c d8a4 c53c 94aa bdbb
000002d0: ca44 ecbc 2599 0a3c 44dd b5bc 5d99 9d3c
000002e0: f919 53ba 84f7 95bc ee7b 20bc eb7b f6bc
000002f0: eb48 96bc 80a8 a5bc bcf2 7b3c ca1e 24bc
00000300: ebb7 ab3c b874 a63c a73f c9bc 73c1 e1bb
00000310: 5840 51bc eea8 b4bb 3e62 37bc f59b bf3c
00000320: e151 adbc a8c6 b5bc 920e d53c 78a3 373b
00000330: 5d7b 96bc 9f54 ff3b 8d31 77bc 34a4 323c
00000340: d00b ef3b 499c b5bc a9c6 a23a ce46 8fbc
00000350: e228 973b c4e0 553b 61b8 183c 6341 df3c
00000360: dc17 da3a 7cc8 063c 56cb e4ba 14b7 9fba
00000370: 25f4 c7bc 4ed9 3a3c 28ab 98bb 99dc a53c
00000380: 5436 82bc 4f0e 863c 4f37 ad3b b298 5f3c
00000390: 93f5 713c 20f6 aabc 7e35 7b3c b8d0 c1ba
000003a0: d7a1 7dbc 9bb3 2cba f1c0 833c bf5a fd3b
000003b0: 78bd eb3b bafc 0fba 3633 86bb c719 713c
000003c0: 1dbd cebc 6322 07bb 83a3 8e3c 7861 123d
000003d0: 85bf 18bb c4af 023b 82a2 f7bc 7b65 c43b
000003e0: 6511 933b ce73 9d3c df29 353c cf93 193c
000003f0: 02a2 d2bc ecb0 f53c 5ac6 b9bc b48b 113c

network_body.linear_encoder.seq_layers.2.weight f4 [256, 256]
-0.00020052963 -0.015328626 0.08360502 -0.030487863 -0.00039118517 -0.046096474 -0.088080704 0.051427275
0.03695701 -0.05350517 0.04035592 -0.029224448 -0.046585508 -0.033227444 -0.06028523 -0.046372004
0.020579463 0.048989546 0.037324887 0.014173295 0.032601494 -0.051682107 0.09177487 -0.07040949
-0.1257444 0.059597753 0.02217101 -0.098058045 0.013916821 0.028184585 -0.037286386 -0.04204813
0.051518515 0.038653217 0.0853409 0.0012777145 -0.16990039 0.06775903 -0.0730071 0.0517338
-0.006409729 -0.12702361 -0.029658722 -0.097764045 -0.06719731 0.035177637 -0.1221788 -0.066112585
-0.065820135 -0.022959601 0.014431755 0.24218841 0.04867358 0.09567994 0.033798076 -0.06109813
-0.029943947 0.02404567 -0.014029638 0.0026283523 0.11463617 -0.014817805 0.07694337 -0.07244886
0.039864033 0.07246291 0.063486084 -0.016085826 -0.025255183 0.055530526 0.029584875 0.06758352
0.041716628 0.041518178 0.04142248 -0.088561505 0.043209568 -0.014573102 0.117817484 -0.0029338591
-0.11589 -0.07462964 -0.0889581 0.10470919 0.040386498 -0.0863712 -0.121525764 -0.04601955
0.10879963 0.025233377 -0.081289135 -0.01088918 -0.043583557 0.022010552 0.068261765 0.030070439
-0.07301726 -0.016278677 0.123037286 -0.059451435 0.0047930013 -0.016297035 0.05226665 -0.02639707
-0.031146215 0.08675987 0.015416517 -0.0009585658 0.08138873 0.06450842 -0.0740599 0.010751059
0.0419109 0.123057574 -0.05476497 -0.08037047 -0.070554845 -0.0063234004 0.09962286 0.07347541
-0.00083771005 -0.045589015 0.06970935 0.05607124 0.06850415 -0.06392352 -0.069609605 -0.014279731
-0.056215443 0.03706984 -0.17364895 -0.13348335 0.0012048988 0.057231985 0.099077284 0.04907101
-0.04283134 -0.05553197 -0.05400607 0.10882565 0.032676343 -0.005716851 0.042763215 -0.048753507
-0.044607013 0.018816328 0.09896791 0.015347122 -0.05795645 -0.011794151 -0.09609042 -0.09616576
-0.042391054 -0.13108502 -0.05433681 -0.043912955 -0.005573166 0.059427697 -0.051142424 0.028791206
0.008890346 -0.0357001 -0.019094693 -0.04510767 -0.06195676 0.01425774 -0.01877591 0.08448043
0.013340559 0.02294854 0.052460298 -0.016662074 -0.025082096 0.04589288 0.012415003 0.044758376
-0.025991524 -0.015083359 -0.07290846 -0.07696308 0.0060979277 -0.057928503 0.027423033 0.030841658
-0.12161191 -0.050752565 0.022357805 -0.0038813723 -0.09296336 0.044112474 -0.03656644 -0.04151653
-0.048243962 -0.11715126 -0.0690129 0.061093803 0.006246274 -0.03456711 0.025657509 -0.022101227
-0.02177863 -0.045348577 0.078561164 -0.07215259 -0.045067396 0.043462843 -0.014700245 0.05633799
-0.067709394 0.055067215 0.04314855 0.027985517 -0.015341189 0.1287898 -0.08329938 -0.00663689
-0.12443897 0.030732408 0.09802427 0.06617396 -0.07441962 0.027528115 0.056832105 0.122312374
0.019092197 0.015991367 0.040832363 -0.026594145 -0.03560065 0.11416219 -0.052537706 -0.03190321
0.04396973 0.044859692 0.01764045 0.013669813 -0.15280218 0.022017373 -0.014717326 0.002234938
0.09948574 0.09425544 -0.06406508 0.038516235 -0.021770343 -0.09381664 -0.047445204 0.12772349
-0.0023571344 0.04966262 0.0550994 0.020603986 -0.09093384 0.029314453 -0.12152797 0.0018653007
00000000: 4345 52b9 eb24 7bbc 1c39 ab3d afc1 f9bc
00000010: fc17 cdb9 a8cf 3cbd a863 b4bd 68a5 523d
00000020: 3c60 173d 3d28 5bbd 404c 253d 1c68 efbc
00000030: 72d0 3ebd 8019 08bd a5ed 76bd 92f0 3dbd
00000040: 4396 a83c 43a9 483d fbe1 183d 1c37 683c
00000050: 2589 053d 9eb0 53bd 77f4 bb3d da32 90bd
00000060: 24c3 00be c61c 743d fa9f b53c a8d2 c8bd
00000070: 6103 643c 5ce3 e63c 9cb9 18bd a93a 2cbd
00000080: 1405 533d d652 1e3d 36c7 ae3d fc78 a73a
00000090: 5efa 2dbe 3fc5 8a3d bf84 95bd d2e6 533d
000000a0: b408 d2bb 7a12 02be d9f6 f2bc 8438 c8bd
000000b0: be9e 89bd 6d16 103d e138 fabd 0966 87bd
000000c0: b5cc 86bd c615 bcbc 2b73 6c3c 3d00 783e
000000d0: f35d 473d d8f3 c33d da6f 0a3d 0842 7abd
000000e0: 024d f5bc 6dfb c43c 91dc 65bc 6f40 2c3b
000000f0: 5ec6 ea3d 61c6 72bc 7c94 9d3d 1160 94bd
00000100: 7848 233d 6f67 943d fe04 823d 6cc6 83bc
00000110: f5e3 cebc fa73 633d fb5b f23c 3b69 8a3d
00000120: 0edf 2a3d f70e 2a3d 9eaa 293d bc5f b5bd
00000130: 84fc 303d 05c4 6ebc 4b4a f13d fd45 40bb
00000140: bc57 edbd 6dd7 98bd aa2f b6bd c671 d63d
00000150: 506c 253d 62e3 b0bd 80e2 f8bd ff7e 3cbd
00000160: 57d2 de3d 3ab6 ce3c eb7a a6bd 8868 32bc
00000170: ac84 32bd 794f b43c d3cc 8b3d 4856 f63c
00000180: 138a 95bd dc5a 85bc f9fa fb3d 5983 73bd
00000190: 9c0e 9d3b 5c81 85bc 8e15 563d ab3e d8bc
000001a0: 5926 ffbc 29af b13d 8f95 7c3c 4348 7bba
000001b0: 22af a63d fe1c 843d b8ac 97bd 3625 303c
000001c0: c4aa 2b3d 9c05 fc3d 3c51 60bd 4699 a4bd
000001d0: 0f7f 90bd 8734 cfbb 1207 cc3d 477a 963d
000001e0: c599 5bba 8cbb 3abd c7c3 8e3d f5aa 653d
000001f0: e74b 8c3d 56ea 82bd 7b8f 8ebd 88f5 69bc
00000200: 2a42 66bd 8bd6 173d 08d1 31be dcaf 08be
00000210: b2ed 9d3a 166c 6a3d 08e9 ca3d affe 483d
00000220: ea6f 2fbd 7e75 63bd 7835 5dbd fbdf de3d
00000230: a1d7 053d 6c54 bbbb 7b28 2f3d c2b1 47bd
00000240: d8b5 36bd b324 9a3c b0af ca3d 7f72 7b3c
00000250: be63 6dbd 413c 41bc 0ecb c4bd 8ef2 c4bd
00000260: 3ea2 2dbd 273b 06be 4690 5ebd 12de 33bd
00000270: 1b9f b6bb 756a 733d b87a 51bd 89db eb3c
00000280: d0a8 113c 453a 12bd 796c 9cbc d2c2 38bd
00000290: 5fc6 7dbd 4c99 693c f0cf 99bc 1304 ad3d
000002a0: 5c92 5a3c 94fe bb3c 9ce0 563d e77e 88bc
000002b0: f878 cdbc 2cfa 3b3d 4c68 4b3c 8f54 373d
000002c0: 2dec d4bc 3120 77bc 0851 95bd d29e 9dbd
000002d0: 20d1 c73b 7046 6dbd 45a6 e03c a5a7 fc3c
000002e0: aa0f f9bd ece1 4fbd b727 b73c 9f5e 7ebb
000002f0: 9363 bebd 48af 343d b1c6 15bd 3d0d 2abd
00000300: 769b 45bd 00ed efbd a356 8dbd 7f3d 7a3d
00000310: 8bad cc3b 3e96 0dbd b22f d23c a20d b5bc
00000320: 1969 b2bc 6ebf 39bd ade4 a03d bdc4 93bd
00000330: 9798 38bd 1806 323d 4cd9 70bc aac2 663d
00000340: 39ab 8abd 298e 613d 89bc 303d e241 e53c
00000350: 9c59 7bbc 79e1 033e de98 aabd 457a d9bb
00000360: dcd9 febd 88c2 fb3c f3c0 c83d 3786 873d
00000370: 5069 98bd a482 e13c c8c8 683d e97e fa3d
00000380: 3d67 9c3c 5400 833c d63f 273d f7db d9bc
00000390: fdd1 11bd decd e93d c731 57bd f1ac 02bd
000003a0: 9b19 343d ccbe 373d b482 903c 5af7 5f3c
000003b0: 2d78 1cbe c75d b43c f020 71bc 0a78 123b
000003c0: 2ebf cb3d ff08 c13d 8d34 83bd 33c3 1d3d
000003d0: b857 b2bc f022 c0bd e755 42bd f2c9 023e
000003e0: 277a 1abb 086b 4b3d e9af 613d b1c9 a83c
000003f0: 853b babd dd24 f03c a8e3 f8bd 1b7d f43a

network_body.vector_processors.0.normalizer.running_mean f4 [30]
0.002358849 0.33085325 0.33614296 0.6435952 0.3387281 0.64666766 0.3954505 0.4435534
0.40014082 0.44744894 2.031633e-05 0.18785983 1.2259974e-05 0.18904269 1.2609693e-05 0.18897298
0.0007811421 0.18942295 0.0007289775 0.19039693 0.0037443237 0.17545925 0.0038824794 0.17886403
0.068757765 8.660463 0.2343388 0.091596335 9.77534 0.2777087
00000000: eb96 1a3b 9965 a93e ee1a ac3e a8c2 243f
00000010: c56d ad3e 038c 253f 7d78 ca3e 6e19 e33e
00000020: 42df cc3e 0718 e53e fd6c aa37 545e 403e
00000030: 30b0 4d37 6894 413e 388e 5337 2282 413e
00000040: 8fc5 4c3a 17f8 413e da18 3f3a 6af7 423e
00000050: 5463 753b 97ab 333e 3271 7e3b 2228 373e
00000060: dfd0 8c3d 4291 0a41 83f6 6f3e dc96 bb3d
00000070: cb67 1c41 d62f 8e3e
