Assets/ML-Agents/Brains/buggedOutToAsideFlags.onnx (onnx, 141016 bytes, 7 tensors)

action_model._continuous_distribution.log_sigma f4 [1, 5]
00000000: d907 b73c 3750 813c 8f6a 553c 91f6 43bd
00000010: 2e6e 433c
0.02234261 0.01578532 0.013025894 -0.047842566 0.011928124

action_model._continuous_distribution.mu.bias f4 [5]
00000000: 3d74 5cba 444f 80bb aa0a a8bb f98d de3b
00000010: ea82 2dbb
-0.0008409655 -0.003915699 -0.0051282244 0.006791827 -0.0026475736

action_model._continuous_distribution.mu.weight f4 [5, 128]
00000000: 47d9 f33a 97d7 8f3c 03b5 e6bc 188b 6cbc
00000010: ce6a 983a 1d0c fd3c 63c2 503c 7234 4d3c
00000020: 614c 1db9 d534 c43b fdd1 b2bc 60a2 8cbc
00000030: 12b0 e23c 3106 29bc 205a babb 5958 08bb
00000040: b516 9f3c 72b7 0ebd 53ab a03a ac6e 4a3c
00000050: 5873 97bb 35ff ba3c 9476 483c 83fd 3f3c
00000060: 47c4 9b3b 6441 253c 9c9d a73c 1c34 03bc
00000070: 45ac bdbb c624 9dba 59fa 0a3c 71a9 2d3b
00000080: 29ab f3bc 06d7 28bb e646 863c ed3e bf3b
00000090: 6742 7b3c ea19 363c 268b 7e3c dc67 643b
000000a0: b9d7 4dbd 23ed 85bc 7a82 96ba 810b efbc
000000b0: 183e 1e3d 014e 44bc 2d51 e1bb 131f 38bc
000000c0: 0951 7f3c d510 debc f75b 913b 6f33 15bc
000000d0: 1dcf f13c 0d9a 423b af71 80bb 33f4 3c3c
000000e0: 25dd 6dbc 55eb e43b 30c2 0e3a 1f1c 69bc
000000f0: b716 633c e2e8 fa3b 43ea 01bd 4945 eb3b
00000100: 64b8 2e3d 7551 223d 1318 bfbc 11eb c2bb
00000110: d27e e33c 8b49 cabc cbd4 a239 937d d9bc
00000120: ea67 b4bc 9de4 0bbd 895f 87bc 07ba 8fbc
00000130: 29a2 c5bb 7ab9 34bc 3dbd 09ba 086c 973c
00000140: 7731 133d 6123 4cbb fc7e 16bd f9e7 09bd
00000150: 3b80 adbc 02a6 ad3b 5a11 95bb c3ca a33c
00000160: 9bcf 0dbc 7f1e 2d3c 6b14 80bc ec4d 093c
00000170: 2b05 eab9 7d76 e2bc 50bb 33bc 4bba 34b9
00000180: f3da 163b deb7 7ebb efb9 913b 0f42 4d3b
00000190: 49d1 60bc 70b4 d93b 896e e4bb 6885 5abc
000001a0: 8859 1cbd bb99 7e3b ea33 bd3b 53d2 1a39
000001b0: 86c1 21bc e780 19ba a5ec bbbc b032 f2bc
000001c0: 7060 d1bc b1fb 323a 9187 663c b5fa 343d
000001d0: dadb 9d3c c1d0 5c3c 0c87 133c 865d 10bc
000001e0: fd98 06bc 8e97 f8ba 4aab e5bc 10c0 3ebc
000001f0: 3da7 803c b3a0 c3bc fa34 043d 7bdf 1d3d
00000200: 98fa 243c 2da4 2ebb a247 af3b 453e 44bc
00000210: eb55 693c 7922 69bb 41f4 1dbc b05b 883c
00000220: bc00 ccbc 7f5d 403c 1a3c 683c 08e6 cdbb
00000230: 1051 b73c ab95 a439 93a9 e4b9 9627 b83c
00000240: 48d9 aa3b 37be 453c bd7b 00bd 0e87 0ebd
00000250: d2f4 003c 308b 1ebc 08f7 a8bb 2148 77bc
00000260: a596 383d 0a53 64bc 054d 773c 3ce4 1a3d
00000270: 37ec 403d 8672 9e3c 22bc b0bc ef7c 7e3c
00000280: da8b b8bb b61d 26bc adc9 aebc 4fe5 763c
00000290: b395 403c fb82 68bc 81e9 9c3c c82c 063d
000002a0: 983b ccbc 0c9a 13bd 2f95 1a3c f68b 10bc
000002b0: d350 61bc 31b6 5f3c 9a93 00bd e1e0 2d3b
000002c0: a73f 9fbc 5a8a 963a 4c58 28bb 2479 c93c
000002d0: a4fa 04bd 6e87 263c 22e1 df3b cfb9 6db9
000002e0: 3b4c 52bc daea 50bc 7031 d8bc af57 3cbb
000002f0: 3532 fe3b e7c1 33bb b295 c63b 4c7d 2fbc
00000300: d55e c7bc 4db3 193c 77ff cb3c cc78 153c
00000310: 0f0a a83a c314 1cbc 6757 1fbc 1dc7 fdbb
00000320: cc32 2939 2896 863c 76be 47bc 5507 bb3c
00000330: 512b bb3a b822 3cbc fbdc 103c 705c 8bbc
00000340: 8675 6abb 030c 71bc a326 cc3a 5c35 b93c
00000350: dfc3 ec3a f23f 203b 08f0 b5ba fa6a 0dbc
00000360: c45d a2bc bc9a ac3c 31e6 2c3c b79a 19bc
00000370: 9bd3 963a 6f40 783d 5127 8f3c a036 b83c
00000380: 8cda ae3c dc68 53bb a0b5 fc3c ad6f edbb
00000390: 24f3 95bc e70f 2c3c a028 713c 2ce1 5d3c
000003a0: ecc4 a43b b2d8 b93a c957 3d3b 3622 8e3c
000003b0: 87a1 d3bc 6a76 463c 190e b4bc 09a4 21bc
000003c0: d107 723c fe0f 88bc 9591 fe3b c8bd 88bc
000003d0: e31c 90bc 3402 b0bc e5af 813c 5e00 ac3b
000003e0: f1ec 3fbb 486c 58bc b58d 1f3c b46f 02bc
000003f0: 5510 65bc e9d5 9ebb d533 83bb a8b2 833c
0.0018604182 0.017558856 -0.028162485 -0.014437459 0.001162851 0.030889565 0.012741658 0.012524711
-0.0001500114 0.0059877434 -0.021828646 -0.01716727 0.027671847 -0.010316418 -0.0056870133 -0.0020804612
0.019420007 -0.034842916 0.001225809 0.012355488 -0.0046219043 0.02282677 0.0122353025 0.011718157
0.0047536227 0.010086391 0.020460896 -0.008008029 -0.0057883584 -0.0011989109 0.008482539 0.00264987
-0.029744701 -0.002576293 0.016391229 0.0058363588 0.015335656 0.011114577 0.015536105 0.0034851944
-0.050254557 -0.016348427 -0.0011482977 -0.02918029 0.038633436 -0.011981488 -0.006876132 -0.011237877
0.015583285 -0.027107636 0.004436012 -0.009106501 0.029517705 0.0029693872 -0.003919802 0.011532831
-0.014518057 0.0069860616 0.00054458063 -0.014227896 0.013860396 0.0076571563 -0.03171755 0.0071798903
0.042656317 0.039628465 -0.02332691 -0.0059484323 0.027770434 -0.024693271 0.0003105759 -0.026549136
-0.022022206 -0.03415357 -0.016525047 -0.01754476 -0.006031294 -0.011030549 -0.0005254334 0.01848413
0.035935845 -0.0031149017 -0.036742195 -0.033668492 -0.02117931 0.0052993307 -0.0045491876 0.019994145
-0.008655454 0.010566353 -0.015634736 0.008380394 -0.00044635808 -0.02764439 -0.010969952 -0.00017235537
0.0023018687 -0.0038866918 0.004447214 0.0031319892 -0.0137217725 0.0066438243 -0.0069711846 -0.013337471
-0.03817132 0.0038848955 0.005774011 0.00014764936 -0.0098728 -0.0005855695 -0.02293999 -0.029565185
-0.02555868 0.0006827666 0.0140704075 0.044184405 0.019269872 0.013477505 0.009004366 -0.00881136
-0.008215186 -0.0018966065 -0.028035779 -0.011642471 0.015704745 -0.023880338 0.032277085 0.038543206
0.010069512 -0.002664815 0.0053491155 -0.011977737 0.014241676 -0.0035573526 -0.009640754 0.016645283
-0.024902694 0.011741041 0.014174486 -0.0062835254 0.02237752 0.0003139203 -0.00043613891 0.022479814
0.00521389 0.0120692765 -0.031368006 -0.034796767 0.00787087 -0.00967674 -0.0051564015 -0.01509288
0.04506554 -0.013935814 0.0150940465 0.037815318 0.047100272 0.019341718 -0.021574084 0.015532716
-0.005631906 -0.01013892 -0.0213364 0.01506932 0.011754441 -0.014191384 0.019154312 0.03275755
-0.02493076 -0.036035582 0.009434982 -0.008822432 -0.01375218 0.013654278 -0.031390764 0.0026531743
-0.019439531 0.0011485324 -0.0025687395 0.024593897 -0.032465592 0.010164125 0.006832258 -0.000226713
-0.012835558 -0.0127513055 -0.026390761 -0.0028738787 0.00775745 -0.0027428807 0.0060603255 -0.010711025
-0.024337212 0.009381128 0.024902089 0.0091230385 0.001282038 -0.009526434 -0.009725428 -0.0077446834
0.00016136019 0.016429022 -0.0121914055 0.022830645 0.0014279877 -0.011482887 0.008841748 -0.017011851
-0.0035775616 -0.0147123365 0.001557548 0.022608452 0.0018063745 0.0024452177 -0.0013880739 -0.008631462
-0.019820102 0.021069877 0.010552929 -0.009375266 0.0011507155 0.060608324 0.017474802 0.022486985
0.021344446 -0.0032258546 0.030848324 -0.007245979 -0.018304415 0.010501838 0.014719158 0.013542455
0.0050283577 0.001417896 0.0028891435 0.017350297 -0.025833858 0.012113193 -0.021979379 -0.009865769
0.014772371 -0.016609188 0.0077688196 -0.016692057 -0.0175919 -0.021485426 0.015830943 0.005249067
-0.0029285515 -0.01320941 0.009738375 -0.007961202 -0.013980945 -0.0048472774 -0.0040039816 0.0160764

network_body.linear_encoder.seq_layers.0.bias f4 [128]
00000000: 1b46 943b 2717 203c a596 acbb 559e 6cbb
00000010: d084 163c bb8d f03b bb92 a7ba 927b 29bb
00000020: f319 2bbb 5918 28bb e466 733a 3de1 fe3b
00000030: af41 c9bb 67b3 bbbb 3a66 bb3a e04f 38bc
00000040: 6952 5f3c 6457 a0bb 5c82 e53a b294 a1bb
00000050: 5d2e 77bb 01d0 d9ba 6ff6 f1bb 16e4 223c
00000060: e8ae b9ba 3d6f 9d3c 43b0 e139 13ce 41bc
00000070: 6495 0f3b c408 ea3b aa41 1e3b 8dce d7ba
00000080: 19c0 1cba 88ab 7fbb 0f78 ec3b 838b d1ba
00000090: 8d00 053b 79e8 c7ba 59f4 7bbb ed0b f53b
000000a0: bde4 9e3c 6831 06bc c667 03bb 7cd2 59bb
000000b0: 89aa 82bb be10 5fbb 53ab 9c3b f8de 1cbb
000000c0: 7ac7 ce3b 65a3 c33b 35d5 db3b 8a42 e2bb
000000d0: 5996 2fbb 2b3f 8839 2bb6 0dbc f2a8 163a
000000e0: 7a67 a0ba 3b82 e6bb e67e 673a 0e49 40ba
000000f0: 81cb 44bb 326d 1fbc f184 203a 820d 983b
00000100: c819 2bba 0af1 ce3b 32b2 6e3c 7b91 adbb
00000110: 881b 64ba d3b3 f8bb 5b2a 25bc a85a 3fbb
00000120: 989e 9639 816c 98ba 4881 6f3b 8402 e33a
00000130: cb32 653a 42f7 71bc 41c0 0b3c 5577 01bc
00000140: 5a3b f3ba b427 f5bb b09a f23a bf01 7d3c
00000150: 3bf9 313a 1db1 b53c 76d2 96bb 5b8e 21b9
00000160: 037b ddbb 4211 4d3b 6ef3 633c d20f 153c
00000170: 0c05 daba 98d2 b3bb d42c 29ba f094 f2bb
00000180: 9233 413c 5b80 43bc 6fd7 13bc ced5 03bb
00000190: 953b 413a 831a fbbb ffbe 3d3c 799d 92bb
000001a0: b7f3 f4ba 1601 0d3b 06a2 143b 7905 383b
000001b0: 96bb e93a 490c 6b3b d00a a5bb 270a 51bb
000001c0: ec0b 82bb 4503 febb c420 e2ba ec4e de3b
000001d0: 7591 6cbc e355 0eba 4870 54bb b78f f13b
000001e0: 316f 813a 9b59 873b 484a 5dbb ebfc 12bc
000001f0: 1e0e 60bc e83c 8b3c 675d b9bb c619 c63b
0.004524959 0.009771145 -0.0052669817 -0.0036105115 0.009186938 0.0073411143 -0.0012784818 -0.0025861007
-0.0026107996 -0.0025649278 0.0009285046 0.0077783153 -0.0061418633 -0.0057281735 0.0014297434 -0.011249512
0.013630488 -0.0048932303 0.0017510164 -0.004931056 -0.0037716844 -0.0016617776 -0.0073841135 0.009942075
-0.0014166506 0.019218082 0.0004304667 -0.011828917 0.0021909112 0.007142158 0.0024148026 -0.0016464755
-0.00059795525 -0.0039012153 0.0072164605 -0.0015987012 0.0020294518 -0.0015251777 -0.0038445203 0.0074782283
0.01939618 -0.00819049 -0.0020050867 -0.003323703 -0.0039876145 -0.0034037079 0.0047811656 -0.002393661
0.0063104006 0.005970406 0.006708766 -0.0069049047 -0.0026792495 0.00025987005 -0.008649389 0.0005747221
-0.001223787 -0.0070345677 0.000883086 -0.0007335105 -0.0030028524 -0.009730624 0.00061233254 0.004640282
-0.0006526974 0.006315355 0.014568852 -0.0052968836 -0.0008701612 -0.007589796 -0.010080899 -0.0029198322
0.0002872839 -0.0011629016 0.0036545563 0.0017319475 0.00087432255 -0.0147684235 0.008529724 -0.007901986
-0.0018557117 -0.0074815396 0.0018509235 0.015442311 0.00067891524 0.02217918 -0.0046027256 -0.00015407188
-0.006759049 0.0031290804 0.013913019 0.00909801 -0.0016633584 -0.005487751 -0.0006453518 -0.0074030086
0.0117920805 -0.011932458 -0.009023531 -0.0020116451 0.0007371244 -0.0076630726 0.011581182 -0.0044743386
-0.0018688355 0.002151554 0.0022679581 0.0028079434 0.0017832394 0.0035865477 -0.0050366893 -0.003189692
-0.0039687064 -0.0077518546 -0.0017252197 0.0067843106 -0.0144389765 -0.0005429668 -0.0032415558 0.0073718685
0.0009875057 0.004130555 -0.00337662 -0.008971433 -0.013675241 0.016996816 -0.0056568864 0.006045553

network_body.linear_encoder.seq_layers.0.weight f4 [128, 136]
00000000: 6dbd e13b 3648 a23c 7656 8abd 71e6 893c
00000010: aa92 c7bd 6443 4fbe dc6e 2d3d dc7f f1bd
00000020: 20f5 2fbb 62fe c13d 1fc6 bdbd 4b4d b43d
00000030: cc27 563d 0af0 cdbd 2d6e 063d e4a5 1cbd
00000040: e694 adbd d49d 55bd c194 9c3d 6640 47be
00000050: f55e 153e 5dcd 63bd 6404 743b 4d3e f3bd
00000060: f1f8 a4bd 073e 05be f92a 21be 8644 b5bd
00000070: d1e0 90bd 6fd3 a7bc 41e6 0cbd ae1f 943d
00000080: da73 9fbd 30c6 01be a0a0 7dbd 6864 153e
00000090: 2cd6 d93c 4e34 acbd 698f 423c d013 4cbd
000000a0: 34af 82bd e7fa 26bd b6cc a2bd 46f9 2a3d
000000b0: 03d8 d5bc 87a2 4cbd 17b8 8abd 8bb9 73bc
000000c0: 0e78 25bc dbf1 53bc f5c3 173e 6fd0 993d
000000d0: 468a 2fbc e10e 6ebd f67f 603d 5915 adbc
000000e0: 9c4a 4a3e 7f31 01be 8bdc 2e3d 7d57 1b3e
000000f0: 56b1 ccbd 7372 ccbd 7ebc 60be 9fb2 a7bd
00000100: 51e4 e0bc 6f3a 1ebe 5b13 01bd 953d 5e3d
00000110: 5bbd 5fbb ae7d e0bd 1e6b 63bc 497e 613d
00000120: efe3 633d bba7 49bc 4123 89bd 02b0 123b
00000130: 9e24 56bd d290 4fbd de7c 853c a196 1f3e
00000140: 7f85 0d3e 9c1a 15be 6487 b9bd 6705 c3bd
00000150: d9b9 2bbc 98f8 3a3b be20 d03d 1bf6 57bc
00000160: a7ab 3cbd af83 18be 608b 5e3d 6edf 92bd
00000170: c53c bc3d fba5 66be 9326 13bb b79b 2a3c
00000180: 27f0 1bbd aba5 58bb 08fd b93d 8f62 833d
00000190: dc83 d5bd 33de e0bd 162e 5bbc 050d c4bc
000001a0: c8dc 23bc 3fa1 34bd 9af8 413d fb79 cdbc
000001b0: c580 423d c186 36bd e58e c0bd 6ae3 08be
000001c0: 85ae a6bd 1529 a6bd 33f2 0f3e bde3 083c
000001d0: 7c8e a2bd 701c ec3d 3341 113d a411 a2bd
000001e0: 8ed1 b43d 7a8b c7bb e5c1 2f3e 40df 0dbe
000001f0: 6e5d adbd ed4a 66bd eae7 54bd 422b 9abd
00000200: f6b4 093d 1dc0 093e c92e 9e3d bab6 5d3d
00000210: 3f88 91bd bd2f eb3c 671f 61bd a026 90bb
00000220: 7459 263e 6450 213c 8b85 353d 9c76 b2bd
00000230: aa92 6b3d 27c0 b3bb 9e6a e5bd 3225 e2bc
00000240: f85b 8cbd ab68 81bd 33ed 08be cc8a ca3d
00000250: 0fba 7b3d 9565 1c3e 2613 e8bd 3d03 8dbc
00000260: ce0a eabc 7eb6 3a3d fde6 a23d 0a5c a73c
00000270: 6c09 bbbc e385 143d 33f9 f6bd 1316 8e3c
00000280: 097e 8fbc 06d5 5d3c bf47 69bd 6f0e 2e3d
00000290: 46a4 053d ebae 6dbd 0bba 9dbd a050 6b3d
000002a0: 6943 d0bc 5ad8 343e 6fb8 bf3d 0f50 3f3c
000002b0: 4ece 143e 60b1 a63c 872b 343e ae14 25be
000002c0: 1e71 b1bd 0d24 a63d 7c15 b3bd 776c 053d
000002d0: 1040 2cbe a2b3 f73b 14cc 0f3d 016a 04bc
000002e0: 1ac2 283e 9de1 cd3d c3b1 e53d 2d7d fa3d
000002f0: a13e 2c39 6a0b f03d e518 45bd 1496 95bc
00000300: 0bf1 90bd 563a 6dbd 5743 b13d d0ed 40bd
00000310: b72f f4bc 52ea bc3d 55e3 ea3d c47c cfbd
00000320: b4cf 0d3e 5383 003e 8cee 79bd a907 bd3d
00000330: 3faf 183b 72a7 9e3d b6af efbd 9908 b2ba
00000340: b7f7 b8bb 1c13 2b3e 741c 913b a639 933d
00000350: 14ca fa3d 06b3 a23e 6de4 0f3e 0de0 043e
00000360: 0de2 ed3d e8e8 b13d d066 fd3d 6578 a2bc
00000370: 9454 8fbd 93e2 ff3d f13e f2bc 436c 043d
00000380: 2838 2e3d 5422 18bd bc63 c7bc 2b78 d7bd
00000390: 0988 e63c 61b5 053e 9265 afbd f3f2 083d
000003a0: 51e4 09bb f9f3 f6bb e5da d63d e350 d6bd
000003b0: 3100 85bc 999d dfbd c9e0 483d f89d 1f3c
000003c0: e89c 113c 5dd6 9b3d 8384 153e fb43 72bd
000003d0: 89a5 e33c 356f 94bd c604 4dbc 4880 743e
000003e0: 4792 433e 82f1 fcbd c51e 13bd 5e6a ad3c
000003f0: f580 5cbd 3305 583c 0158 9fbd 73a6 7dbd
0.0068890364 0.019809823 -0.06754772 0.016833516 -0.09744771 -0.20240551 0.042342052 -0.11791965
-0.0026848987 0.09472348 -0.09266304 0.08803805 0.052284047 -0.100555494 0.032819916 -0.038244143
-0.08475666 -0.05215247 0.0764556 -0.1945816 0.14587004 -0.05561577 0.0037234062 -0.11877117
-0.08055294 -0.13011943 -0.15739049 -0.088509604 -0.0707413 -0.020486562 -0.034399275 0.07232605
-0.07785769 -0.12673259 -0.061920762 0.14589083 0.026591383 -0.08408414 0.011875012 -0.049823582
-0.063810736 -0.040766623 -0.07949202 0.041741632 -0.026103979 -0.049959686 -0.067733936 -0.01487578
-0.010099424 -0.012936081 0.14820845 0.07510459 -0.010714119 -0.05811966 0.054809533 -0.021128343
0.19755024 -0.12616538 0.042690795 0.15170093 -0.09994762 -0.09982767 -0.21946904 -0.08188366
-0.02745262 -0.15451978 -0.0315126 0.054257948 -0.0034139964 -0.109614715 -0.013880519 0.055052076
0.055637296 -0.0123080565 -0.06696177 0.002238274 -0.052281015 -0.05067522 0.016294893 0.15584804
0.13820456 -0.14560932 -0.09059027 -0.09522515 -0.010481321 0.002852952 0.10162495 -0.013181235
-0.046062138 -0.14893983 0.054332137 -0.07171522 0.09191278 -0.22524254 -0.0022453412 0.010413102
-0.038070824 -0.003305773 0.09081465 0.06415283 -0.10425541 -0.10979881 -0.013377687 -0.02393199
-0.010001369 -0.04409909 0.047356226 -0.025082579 0.047486085 -0.044562105 -0.09402255 -0.13368002
-0.08138756 -0.081133045 0.14057235 0.008355078 -0.07937333 0.115288615 0.03546257 -0.07913521
0.08829032 -0.006089625 0.17163809 -0.13854694 -0.08465086 -0.0562238 -0.051978983 -0.07527782
0.033619843 0.13452192 0.07723767 0.05412934 -0.07106065 0.028709287 -0.05496159 -0.0043991357
0.16245061 0.009845827 0.04431681 -0.08714029 0.057512917 -0.005485553 -0.11201976 -0.027605627
-0.06853479 -0.06318792 -0.13371734 0.09889755 0.061456736 0.15273125 -0.11331777 -0.017213458
-0.028569605 0.045584194 0.07954214 0.02042963 -0.022831641 0.036260497 -0.1205925 0.01734451
-0.017516153 0.013539558 -0.056953188 0.042494234 0.032627366 -0.058028143 -0.077015005 0.057449937
-0.025422769 0.17660657 0.0936135 0.011676802 0.14531824 0.02034825 0.1759473 -0.1612117
-0.086641535 0.08112345 -0.08744332 0.032574143 -0.16821313 0.0075592557 0.035106733 -0.008081914
0.16480294 0.10052798 0.11215546 0.12230907 0.0001642653 0.11720927 -0.048119444 -0.01826004
-0.07077225 -0.05791696 0.08655422 -0.047101796 -0.029807908 0.092243806 0.114691414 -0.10131219
0.13848764 0.12550096 -0.06101851 0.09229977 0.0023297814 0.077467814 -0.11703436 -0.0013582885
-0.0056447643 0.16706508 0.0044284407 0.0718873 0.122455746 0.3177721 0.14051981 0.12976094
0.116153814 0.086870015 0.123731256 -0.0198328 -0.06998554 0.124943875 -0.029571028 0.03232981
0.042534024 -0.037142113 -0.02433955 -0.10520967 0.028141038 0.13057472 -0.08564295 0.03343482
-0.0021040628 -0.007536408 0.104909696 -0.10464647 -0.016235443 -0.10918731 0.049042497 0.0097422525
0.008887507 0.07609246 0.1460133 -0.059146862 0.027788894 -0.072477736 -0.012513345 0.2387706
0.19098769 -0.123507515 -0.035918016 0.021168884 -0.05383392 0.013184833 -0.07780457 -0.061926316

network_body.linear_encoder.seq_layers.2.bias f4 [128]
00000000: 4d52 c4bb b42d 54bb 068c b33b 79e0 483c
00000010: 9f2e 98bb 35f3 8a3b c9b5 b4bb 65e8 98bb
00000020: e7a1 9fbb 85a2 a7bb ea4b 8fba dea4 3c3b
00000030: cbed 533c c020 033b c0a8 90bb 9749 dd3b
00000040: 1d3a 9bbb 41b8 35bb 8eca 39b9 da4c c13b
00000050: 9334 edbb fc9d 05bc eead c9bb 8ff2 4c3b
00000060: 4b30 e1bb 27c6 a03b c2cd 19bb 711a 84bb
00000070: bfdf 8b3b e8a1 bbbb 0370 f2ba e248 2fbb
00000080: cab4 b6b9 66d8 b6bb e612 a2ba a7a1 2c3c
00000090: eed1 723b d03f a0bb a996 3fbc f1de 14bb
000000a0: 4dec 1abb eed1 ebb9 fc52 573c bb9d ba3b
000000b0: 2522 223b 6d49 273b 49eb b03a 275f 4dbc
000000c0: fc94 a4b9 d098 e9ba 6cd5 d13b 1f18 e6ba
000000d0: 8e3f 23bb 09c9 88ba 4b03 e4bb d25e ff3b
000000e0: 8578 38bb 9a67 dc3b 722b d5bb 52e7 9aba
000000f0: e99b 733a c837 fcba 4546 adba 3171 04bb
00000100: 59d3 613b 3a4a 3bba f813 dabb 94d9 d43b
00000110: b752 c5bb 8121 ff3b 8634 ec3b f1af 07ba
00000120: b4d1 86bb c8cf 543c 2c69 32bb 597b 64bb
00000130: 3af9 683b dbc3 a9ba f934 ce3b ba56 ecba
00000140: 847c ee39 134f c1bb 0b1a b43b 03b7 833b
00000150: 0dd6 a83b 088a d13a ed71 133c 263c efbb
00000160: e69d 8a3b 8335 b9bb 8d2b e4ba 392c 763b
00000170: 6bba e1ba 2836 9cba fd80 1a3c 782f 0bbc
00000180: 7d13 b63b c758 2c3b 0117 8b38 98c9 70bb
00000190: e9cf f03b d6ac 39bb 9d41 85bb 5906 483a
000001a0: 342e 133c 9725 a0bb 9d43 23bc a995 293b
000001b0: 7a13 2639 d413 3cbb 270a ddba 25b6 c8bb
000001c0: e532 fb3b 3c4f 893b 9668 1bbc 1cc8 aaba
000001d0: 69c5 1cbb 40f2 b1ba 8aae 6abb 4334 42bc
000001e0: 451b 903b 9a46 aebb 3c98 753a a2a4 e9bb
000001f0: 282e 283c a0e5 85ba 3bb1 bd3a 9367 d339
-0.0059912563 -0.0032375874 0.0054793386 0.01226055 -0.0046442295 0.0042404183 -0.0055148345 -0.0046663755
-0.004871595 -0.0051158094 -0.0010932658 0.0028784792 0.012935112 0.0020008534 -0.004414648 0.0067531574
-0.0047371523 -0.0027728232 -0.00017718432 0.005899054 -0.0072389334 -0.008155342 -0.0061547672 0.0031272506
-0.006872212 0.004906434 -0.0023468588 -0.0040314724 0.004268616 -0.005726088 -0.0018496517 -0.0026746322
-0.00034848443 -0.005579996 -0.0012365251 0.010536588 0.0037051397 -0.0048904195 -0.011693635 -0.0022715891
-0.0023639381 -0.00044979103 0.013142344 0.0056950725 0.002473959 0.0025525943 0.0013497855 -0.012534893
-0.0003139152 -0.0017822031 0.0064036157 -0.0017554796 -0.0024909708 -0.001043589 -0.0069584004 0.007793286
-0.0028148007 0.0067262175 -0.006505423 -0.0011818206 0.0009292947 -0.0019242698 -0.0013219794 -0.002020907
0.0034458248 -0.00071445445 -0.0066552125 0.006495664 -0.0060218233 0.0077859764 0.0072084097 -0.00051760586
-0.004114354 0.012988992 -0.0027223332 -0.003486356 0.0035548941 -0.0012952046 0.006292936 -0.0018031218
0.0004548767 -0.005899319 0.0054962686 0.0040196194 0.00515247 0.0015986571 0.00899933 -0.0073008714
0.0042302487 -0.005652131 -0.0017407999 0.003756298 -0.0017221695 -0.0011917995 0.009430167 -0.008495204
0.0055565224 0.0026298033 6.632321e-05 -0.0036741253 0.0073490036 -0.0028331778 -0.0040666596 0.00076303404
0.008983184 -0.0048872936 -0.009964851 0.0025876558 0.00015838249 -0.0028698342 -0.0016863988 -0.006125229
0.007665979 0.0041903537 -0.009485384 -0.0013029608 -0.0023921377 -0.0013576224 -0.00358096 -0.0118532805
0.004397782 -0.005318475 0.0009368693 -0.0071302215 0.010264911 -0.0010215528 0.0014472374 0.00040322225

network_body.linear_encoder.seq_layers.2.weight f4 [128, 128]
00000000: ad6e 453c 5ae8 26bb 43e3 35bc 1495 643d
00000010: 487e 59be fd56 17bd 61b6 f53d aabf 1dbd
00000020: e89b e6bd 36c9 b1bc 5e29 29be dc13 6b3e
00000030: 4d43 1ebd 67d9 703e 71f6 0c3d 2624 293b
00000040: 9e30 90bd 4b86 87ba 68a9 ffbc 4895 493d
00000050: 4107 06bd ec42 893d c34e 38bd 151d 133e
00000060: 42b9 953c 3940 703d 8cd4 123e b680 b7bc
00000070: 57a8 17be 8cc4 9d3d f547 2abd 70bb f8bd
00000080: 3860 30bd b9d6 a63c de5f 023d 7188 bd3d
00000090: c5dd 12be 76f8 84bd 71fb eb3d 8051 5a3e
000000a0: c765 8abb 6abe e1bc 57ca 413b 3004 4b3d
000000b0: c083 8dbd fe68 cfbc cf54 883d 0d73 e2bc
000000c0: 64c0 32bd 2f9b 753d dfad c93b 3fda 1f3d
000000d0: 13ee bcbd 7982 1a3e b5ae 853c 1a85 063d
000000e0: 9f43 b83d f1c8 313e f17f 51bc 4fe6 23bd
000000f0: 15ca d7bc d28b a83b 2521 4abd 8cfe aa3d
00000100: 2103 89bd 48c0 563d e45c 903b 7c7c 323d
00000110: 4938 84bd b737 c43a 690e 27be 4e90 96bd
00000120: 1048 243d 7043 c7bc 9831 a9bd fdda 08be
00000130: 0664 d03b 18ba 2c3d 113a 9ebb 56bd 053d
00000140: 46ce 0cbe eff9 a73d 484c f13d d4d0 b7bd
00000150: 5370 af3d d142 713d decb edbd 7fb9 af3b
00000160: c221 f0bc 0da2 94bd e402 6fbd d981 db3d
00000170: 2273 8b3d 4cc4 9b3a d5cc 8f3c b07c 83bc
00000180: 917d 59bc 056b 483d ddbe 613c 0c6f 963d
00000190: 6c25 8b3d 0c24 2ebd 6b21 c43d 81ff b6bd
000001a0: 2ebf 673d 6aab 293e bc32 f0bc 62d8 d2bc
000001b0: 05ec 883d e4f3 013e 0d57 bc3d edfd 1dbe
000001c0: a2bc 363c 2e2e 34bd f798 34be da0c 493d
000001d0: 6b03 77bd 3776 57be 5509 723e 0468 9dbb
000001e0: b8fa b5bd d63a 7cbd e3e2 2ebd 1380 9f3d
000001f0: b787 a9bd 51d1 453d 7b39 063d 6e7a 193c
00000200: 3663 bd3d 2a00 cb3c 6fc0 833d 4d54 37be
00000210: 0f1d 1dbe c3a6 b33d 13b1 71bd 3759 263d
00000220: b4a6 c5bd e14b 9fbc f7c9 60bd b23b d1bd
00000230: 2dfe ddbd 9a7f c7bd cdce 1d3d b71d ef3d
00000240: 9ef8 573c fe2e b43d fd67 e1bc 374e 1bbd
00000250: 5d83 c0bc eded eabb b255 c63d 9649 1abd
00000260: 9dfd febd a568 1e3c 3405 bc3d f776 e93d
00000270: 7621 85bd 4896 abbd d722 1cbd 5cda 9d3c
00000280: a879 5bbc 7a91 9ebd dd36 1b3e 07e1 0e3e
00000290: 6440 d0bd 7f3f 00bd 647e d9ba af16 86bd
000002a0: 9559 bd3d 1322 9fbd d2e0 8fbd 6629 d93d
000002b0: 051e a4bd 88fb 503d ed6e 6f3d fc13 01be
000002c0: a347 893c beea a83c e7a4 453d 1e0f e4bd
000002d0: 4497 d03c 34ad bf3d adcc ecbd 9875 503e
000002e0: d7dc 1dbe 0b1c 2f3e 9e18 dd3d b1b6 84bd
000002f0: 9429 f9bd 9a53 3e3d 76e2 2b3c ca1c 153e
00000300: 6cd5 08be 1c0a c7bc 65ee 493d 4d1e dc3d
00000310: b45f ac3c 9d9c a1bd 224d a6bd 84ed 3fbd
00000320: 95d3 253d aebb f83d 8259 d33d 8e2c 8a3c
00000330: d57e 1c3e cd1e 103e 0859 d13d d690 723d
00000340: 5b89 183c 9b66 1cbc 5330 d3bd c087 35bd
00000350: a2fd a23d 06ee 9d3c 6d98 a23c 70ea ce3d
00000360: af9b 6a3d 50d9 e93c 03c2 873d ce2e 973c
00000370: ea6c 1fbe 910e 883d 4ee5 8c3c 39e7 013d
00000380: d2e5 b23c 87b2 0b3c be38 77b9 fbb1 163e
00000390: 9a17 99bd 8b47 6d3d 6f7d 473c c2da 4ebd
000003a0: 1b10 31bd 6af9 74bb 88a4 b3bb efb1 ef3a
000003b0: 9e40 a7bd 0344 823c bd13 d3bd 491e 55bd
000003c0: b13f c2bc 988c ea3d 8505 8abc cccb 0abe
000003d0: 9c62 08be 80ff c2bc 6dfd 05be dd7b 3f3d
000003e0: 2ab6 073e 07e8 f43b bdf4 d1bc e6fb e5bd
000003f0: bf20 173d a627 7ebe e5fc cbbc 99f8 25be
0.012050313 -0.0025468082 -0.011101547 0.055806234 -0.21239579 -0.036948193 0.11997677 -0.038512863
-0.112602055 -0.02170239 -0.16519687 0.22956795 -0.0386384 0.23520432 0.034414712 0.00258089
-0.07040523 -0.0010339705 -0.031208709 0.04921463 -0.03272176 0.067022175 -0.044996988 0.14366563
0.018276814 0.058654997 0.14338893 -0.022400241 -0.1481031 0.07703504 -0.04157253 -0.12145126
-0.04306051 0.02036606 0.031829707 0.0925454 -0.14342411 -0.06492703 0.11522568 0.21320152
-0.0042235586 -0.027556617 0.0029570067 0.04956454 -0.06909895 -0.025318619 0.06656801 -0.027642751
-0.04364051 0.059962448 0.0061547603 0.039026495 -0.092250966 0.15088834 0.016318658 0.03284178
0.08997273 0.1736181 -0.012786851 -0.04001456 -0.026341477 0.005143621 -0.049348015 0.08349332
-0.0669005 0.052429467 0.0044056047 0.04357575 -0.06456048 0.0014970218 -0.16314091 -0.07351743
0.040107787 -0.024324149 -0.082614124 -0.13364787 0.00635958 0.04216966 -0.0048286994 0.032651268
-0.13750562 0.08201968 0.117821276 -0.08975378 0.08566346 0.05890161 -0.1161115 0.005362689
-0.029312972 -0.07257471 -0.058352366 0.10718126 0.06809069 0.0011884063 0.017553726 -0.016050667
-0.013274566 0.048930187 0.0137784155 0.07345399 0.06794247 -0.042514846 0.095766865 -0.08935452
0.056578808 0.16569296 -0.029321067 -0.025737945 0.06685642 0.12690693 0.09196291 -0.15428896
0.011153372 -0.043989353 -0.17636476 0.04908452 -0.060305994 -0.21041189 0.23636372 -0.0048036594
-0.088857114 -0.061579548 -0.042696845 0.077881 -0.08277839 0.048295323 0.03276966 0.009367568
0.092474386 0.024780352 0.06433188 -0.17903252 -0.15343116 0.08772042 -0.05900676 0.040612426
-0.09650937 -0.019445362 -0.05488011 -0.10216464 -0.10839496 -0.09741135 0.0385273 0.116755895
0.013181834 0.087980255 -0.027515406 -0.03791639 -0.023500139 -0.0071694762 0.09684314 -0.037667833
-0.12450717 0.009668504 0.0918068 0.11399644 -0.06500523 -0.08378273 -0.038119163 0.01926916
-0.013395704 -0.07742591 0.15157647 0.13953029 -0.101685315 -0.031310555 -0.0016593453 -0.06547295
0.09245602 -0.07770171 -0.07025303 0.10603599 -0.08013538 0.05102113 0.058455396 -0.1260528
0.016757792 0.020619746 0.048252966 -0.11135696 0.025462754 0.09359208 -0.11562476 0.20357358
-0.15416275 0.17100541 0.10795711 -0.06480158 -0.121661335 0.046466447 0.010491004 0.14561763
-0.13362664 -0.024296813 0.049299616 0.10747967 0.021041729 -0.078912 -0.08120181 -0.046857372
0.040484983 0.12145172 0.10319807 0.016866948 0.15282758 0.1407425 0.102220595 0.059220158
0.009310092 -0.009545947 -0.103119515 -0.044318914 0.07958533 0.019278537 0.019848073 0.10103309
0.057277378 0.028546005 0.06628802 0.018454935 -0.15568891 0.06643403 0.017199185 0.03171465
0.021838102 0.008526451 -0.00023576894 0.14716332 -0.07475205 0.057929557 0.012175902 -0.050501592
-0.04322825 -0.0037380108 -0.00548226 0.0018287281 -0.081666216 0.015901571 -0.10306499 -0.052030835
-0.023712011 0.114525974 -0.016848335 -0.13554305 -0.13318866 -0.023803473 -0.13084956 0.046748985
0.13253084 0.007473949 -0.025629396 -0.112296864 0.036896463 -0.24819812 -0.024900863 -0.16208114
