Assets/ML-Agents/Brains/first.onnx (onnx, 117462 bytes, 7 tensors)

action_model._continuous_distribution.log_sigma f4 [1, 5]
000000 7a 3c 8b bc 3f c1 bb bc 8b b5 a5 bc 4a 19 e1 bb
       -0.01699661 -0.022919295 -0.020228168 -0.00686947
000010 34 c8 a6 bb
       -0.005089784

action_model._continuous_distribution.mu.bias f4 [5]
000000 eb a7 f8 39 d1 1e 8c 3a 9d 93 03 3a f0 b4 01 3b
       0.00047427355 0.0010690336 0.00050192495 0.0019791685
000010 47 b3 b7 ba
       -0.0014015221

action_model._continuous_distribution.mu.weight f4 [5, 128]
000000 1f 69 3f 3d 59 64 b3 3c 44 01 c4 3c ce 8d 37 bd
       0.04673111 0.021898435 0.023926385 -0.04481297
000010 4a 98 64 bb e2 12 44 3c 58 e0 ba bc d6 f0 90 bc
       -0.003488081 0.011967393 -0.022812054 -0.017692965
000020 7c 33 af bb 16 4f 83 3b ec cf d7 bb cc 86 80 3c
       -0.0053467136 0.0040072305 -0.0065860655 0.015689276
000030 13 e3 e7 3b 53 9e cd bc c9 2b d1 3b b9 66 63 bc
       0.00707663 -0.025099909 0.0063833934 -0.013879471
000040 4a 53 05 3d 51 93 07 bd df 03 7d 3c 10 6e 8f 3a
       0.032550134 -0.033099476 0.0154428175 0.0010942835
000050 fa 96 ff 3c f4 78 84 3c 5c 4b a9 3c 83 5c 98 bc
       0.03119992 0.016170956 0.020665817 -0.0185988
000060 35 53 a4 bc 88 f3 82 bb 0b be b5 bb aa 5f 41 b9
       -0.020059207 -0.0039963163 -0.0055463365 -0.00018441552
000070 a8 06 0d 3d 82 b9 e7 3b b1 28 0f bd 74 46 d6 3c
       0.034430176 0.007071675 -0.034950916 0.026156642
000080 69 b3 b3 bb f0 ef 6f bb bd 6f 23 3c 2d df 8e 3b
       -0.005484034 -0.003661152 0.009975371 0.0043601007
000090 14 9d df bb 3c d7 f2 3c 99 0f 11 bc 71 6c d0 3b
       -0.006824145 0.029643647 -0.008853816 0.0063605835
0000a0 35 59 4d bc 5b 50 23 bc 26 6e e3 3c 60 a4 45 bc
       -0.012533476 -0.009967889 0.027762484 -0.012063116
0000b0 59 12 c8 bb c2 d1 ba 3b 8b a6 5c bb f8 42 b7 3a
       -0.006105703 0.0057012746 -0.0033668603 0.001398175
0000c0 b6 e5 5a 3c 17 b6 39 b9 24 7c b2 bc 6e 8e db 3b
       0.013360431 -0.00017710809 -0.02178771 0.0067003286
0000d0 41 a0 dd 3c ce 5c 17 3c 48 e2 fd bb 2c c5 68 bc
       0.027053954 0.009238435 -0.007747922 -0.014207166
0000e0 60 f5 73 bc a4 6d 0a 3c b1 b0 91 bc 3b cb 17 bc
       -0.014890045 0.008448992 -0.017784448 -0.0092647625
0000f0 ff 0c bb b8 04 e9 39 bb ea 84 02 bd 93 70 d5 3c
       -8.9192756e-05 -0.0028367648 -0.031865038 0.026054656
000100 90 50 b1 bc 88 bb 93 bb 1e 95 d2 3c 4c 09 37 ba
       -0.02164486 -0.0045084395 0.02570587 -0.00069822813
000110 6c 24 f0 3b 3a 3b eb bc b4 eb 9e bc ca 19 b3 bc
       0.0073285606 -0.028714765 -0.019399501 -0.021862883
000120 32 12 5f bc e6 8d 9e bc 91 bf 77 bc 65 40 b9 3c
       -0.013615178 -0.019354772 -0.015121357 0.022613714
000130 7a 5f 85 bb da 9b 77 3c 5a eb f8 3b 44 f4 d9 3c
       -0.0040702196 0.0151128415 0.0075964155 0.026605733
000140 8b ea f1 3a d6 e0 0a bb 2a 4b 15 3c 57 2f aa 39
       0.001845674 -0.0021191142 0.009112159 0.00032460198
000150 94 44 28 3b a3 2a b4 ba 35 f4 85 ba 01 8a 59 bc
       0.0025675641 -0.0013745617 -0.0010219874 -0.013277532
000160 13 ec 33 3d b0 34 44 3b 80 d7 39 bc 0b 98 94 bc
       0.04392631 0.002993863 -0.011342883 -0.018138906
000170 15 6f 4d 3c 29 14 9b 3c 31 0b 2f 3c 85 9b 8b bc
       0.012538691 0.018930512 0.010683821 -0.01704193
000180 74 92 83 3b 2b ad 9d 3c 00 ce 54 bb e1 26 a5 3c
       0.0040152613 0.019247612 -0.0032471418 0.02016014
000190 e7 5a 4d 3c c4 74 fc ba 15 5e 1a 3c 4a dd 44 bb
       0.01253388 -0.0019260873 0.009421845 -0.0030039125
0001a0 83 04 be b8 d6 03 2d bc 4e ba 04 3d fd 27 44 3c
       -9.0607464e-05 -0.010559997 0.032404236 0.011972425
0001b0 41 18 29 3d 6e b8 46 3c 5b 2c 8c 3c 3b 08 0b bd
       0.041282896 0.012128932 0.017110994 -0.033943396
0001c0 bb 56 2d 3c 4a 1c 37 3d 1e f4 e9 bc ca aa 8b bc
       0.01057976 0.044704713 -0.028558787 -0.017049212
0001d0 5c 5d a1 3c d2 b7 77 bc 70 d1 bc 3b 96 cf 16 bc
       0.019697838 -0.01511951 0.0057622716 -0.009204766
0001e0 1e 02 9b bc 68 77 66 3c bc 95 0c 3d 03 1f 90 bb
       -0.018921908 0.014066555 0.034322485 -0.004398228
0001f0 03 75 94 3c 7a 96 27 ba 82 d5 f6 3b ee 05 98 bc
       0.018122202 -0.0006392967 0.0075327763 -0.018557515
000200 f2 fc 5d 3c 7c df 90 3c 2a a6 0a bc 0e 55 3b 3c
       0.013549076 0.01768469 -0.008462468 0.011433853
000210 b3 19 8b 3c ba d1 e0 3b 76 02 92 3c cc 31 96 bb
       0.016980028 0.006860939 0.01782344 -0.004583573
000220 f0 4e 10 3c 9f 2f a0 bc 00 10 a0 bc e3 f5 a4 3b
       0.008807883 -0.019553958 -0.01953888 0.005034195
000230 eb 79 93 3c 5c 02 96 bc 02 d6 93 3c 2a 3c d7 3b
       0.018002471 -0.018311672 0.018046383 0.0065684514
000240 1f 21 11 3c f8 6e 5f 3c 95 80 00 3d e0 b4 ac ba
       0.008857994 0.013637297 0.031372625 -0.0013176464
000250 ee 85 18 bc ef b6 a4 bb 6d 89 1b 3b de 0a 94 3c
       -0.009309275 -0.00502669 0.0023733035 0.018071588
000260 ea cc ad bb e3 06 86 ba d0 14 11 3c 6a 86 62 bc
       -0.0053039687 -0.0010225441 0.00885506 -0.013825992
000270 1d 2c d2 ba 15 ee b0 bc b3 aa b0 b8 b0 88 df bc
       -0.0016034875 -0.021597901 -8.424129e-05 -0.027286857
000280 8d 31 78 3b 78 d0 70 3a 57 73 f2 3c f3 ea 00 bd
       0.0037871331 0.00091863377 0.029596014 -0.031474065
000290 d8 37 4d bc 34 31 71 bc bf 4b 8d bb 24 a3 60 bb
       -0.012525521 -0.014721204 -0.004312008 -0.0034276927
0002a0 4f f5 2d ba 5f 97 0a bb 3c a1 6e bb 82 5f b3 b8
       -0.000663598 -0.0021147353 -0.003641202 -8.553175e-05
0002b0 00 26 1a bb 8d 48 2b bc f6 0f 52 3c 89 b7 06 3d
       -0.0023521185 -0.010454309 0.012821188 0.032889877
0002c0 98 1f d2 3b 4a db 0b 3c 0f 18 5c 3c e9 41 05 bc
       0.0064124577 0.008536169 0.01343347 -0.00813339
0002d0 dc 2c 5b 3c 34 0b 48 3d 09 f5 8d 3b e3 d0 ad 3c
       0.0133773945 0.04883881 0.004332189 0.021217769
0002e0 cd 41 96 bc 75 cb b7 3c 24 ee 21 bc e2 aa 16 3c
       -0.018341923 0.022435883 -0.009883437 0.009196015
0002f0 40 71 42 3c 59 7b 1d bc af 24 fd 3c 59 aa e0 bc
       0.011867821 -0.009611928 0.030901281 -0.027424978
000300 37 ad 00 3c b5 58 93 bc 12 67 24 3b 3e 1a 38 bc
       0.007853798 -0.017986635 0.0025085849 -0.011236725
000310 2f 0f 5c ba 18 37 80 3b 60 5b 90 bc 4b 45 39 bc
       -0.00083945965 0.0039128177 -0.017621696 -0.011308025
000320 dc 8d 94 3b 49 48 29 bc a7 b4 b0 3c 66 c9 4d 3c
       0.0045335125 -0.0103321755 0.021570517 0.012560224
000330 29 30 11 3c c7 4d 04 3d d7 3c 5d 3c b9 a6 58 3b
       0.00886158 0.032300737 0.013503275 0.0033058359
000340 3d f5 b4 bb 78 76 02 3c 37 27 dc bb d1 a2 33 bc
       -0.0055223987 0.007962815 -0.006718542 -0.010964111
000350 72 18 8b bc fd 05 66 3c 40 40 00 3c 41 98 90 3c
       -0.01697943 0.014039514 0.007827818 0.017650725
000360 80 fd 92 b9 c6 0a ef 3b b2 0a 5b bc f1 07 aa bc
       -0.00028036162 0.0072949855 -0.013369249 -0.02075574
000370 68 98 16 3d f2 18 1f bc 39 74 3f b6 74 90 d8 bc
       0.03676644 -0.009710537 -2.8528868e-06 -0.026436068
000380 bb cd 01 bc 56 61 b2 3c ea 60 3c 3c 86 6e 67 3c
       -0.007922585 0.021774929 0.0114977155 0.014125472
000390 46 28 29 bc 0d de 88 bc e1 99 8c 3c a9 4e 0b bd
       -0.010324543 -0.016707445 0.017163219 -0.034010563
0003a0 d8 9c 8f 3b eb 76 46 bc 16 d0 bf bc 7a 2c f2 3b
       0.004382711 -0.012113313 -0.023414653 0.007390556
0003b0 42 34 10 bc 9f 01 7f bb eb a4 af 39 f5 f9 6d bc
       -0.008801522 -0.0038910878 0.00033501475 -0.014524926
0003c0 f4 e5 ae 3c 32 7c 28 bc 1c 06 ea bc b5 3a e2 3c
       0.021349885 -0.010283517 -0.028567366 0.027615884
0003d0 82 14 77 bb 72 cd 7c bc ea 4b bc 3c 5b 34 65 bd
       -0.0037701433 -0.015429841 0.022985417 -0.055958133
0003e0 d1 4e e5 bc d3 37 27 3c 08 c0 01 3d c8 d4 0e bc
       -0.027991684 0.010206181 0.031677276 -0.008717723
0003f0 7a a2 1a bd 2b f3 fe 3c e9 5c f7 3c 75 a8 8e bc
       -0.037752606 0.03112181 0.03019567 -0.017414311

network_body.linear_encoder.seq_layers.0.bias f4 [128]
000000 5b ed 33 3b 36 56 01 bc 31 c5 0e bc ad 5f 1d ba
       0.0027454707 -0.007894089 -0.008714006 -0.00060033315
000010 8a 35 d5 ba ad 72 63 3b 89 2d 4e bb 7f 2d 8c 3b
       -0.0016266566 0.0034705803 -0.0031460247 0.0042778845
000020 0c 55 be bb ac da 5a bb af d7 8c ba 01 a3 ba ba
       -0.005808478 -0.0033394499 -0.0010745431 -0.0014239253
000030 e0 96 07 3b 80 ef 66 bb 5c 0a 49 bb 7d 74 0b bb
       0.0020689294 -0.0035237968 -0.003067634 -0.002127915
000040 97 d8 6a 38 92 08 58 3a 5c 05 48 bb e7 72 79 ba
       5.5991663e-05 0.0008241023 -0.0030520773 -0.0009515718
000050 07 e9 af ba b9 fa 29 b9 a9 7c 44 3b 57 7a 09 ba
       -0.0013420888 -0.00016210497 0.002998153 -0.00052443653
000060 10 a1 0c 3a 0a 83 94 3b 78 d9 0a 3b c7 e1 96 bb
       0.00053645764 0.0045322226 0.002118675 -0.0046045515
000070 4f ea c9 ba 4b 48 e0 bb 6b 48 5a ba 39 9c 2b bb
       -0.0015404912 -0.0068445555 -0.0008326831 -0.0026185645
000080 ed 91 33 bb 2f e7 b8 ba cf ce af bb 31 db 75 b9
       -0.002740021 -0.0014106984 -0.0053652297 -0.00023446676
000090 02 27 b7 ba 55 bc 8c 3b 1c 36 9b bb 5c e7 ad bb
       -0.0013973417 0.004294912 -0.004736675 -0.005307121
0000a0 0b 9e 0a 3b f9 0b 54 3a c3 7c 37 3b ac 47 9f ba
       0.002115133 0.0008088942 0.0027997948 -0.0012152097
0000b0 d1 01 83 bb a2 9c db bb d7 ce 63 ba 35 83 08 3b
       -0.0039980193 -0.0067020217 -0.00086901843 0.0020830159
0000c0 66 57 ce 3b 09 06 af 39 91 e1 cb 3a bc 62 db 3b
       0.00629704 0.00033383098 0.0015554895 0.0066951197
0000d0 00 18 6e ba e1 55 73 3b 25 90 c4 ba b4 70 d3 ba
       -0.0009082556 0.0037130045 -0.0014996572 -0.0016131611
0000e0 ee 39 72 bb da 65 a2 bb 39 6f 0d 3b 1b de 37 bb
       -0.0036960798 -0.0049559893 0.0021581186 -0.002805597
0000f0 20 a7 05 bb 1c 40 26 3b 08 bc 23 bc df 30 14 3b
       -0.0020393804 0.0025367802 -0.009993561 0.0022612137
000100 aa 23 d2 3a d2 b3 94 bb f7 2c 0d bb a5 6b 5b 39
       0.0016032357 -0.004538038 -0.0021541694 0.00020925568
000110 9e 41 58 ba b2 f6 4a bb e4 5d 29 3b 3f 59 8b bb
       -0.0008249524 -0.0030969796 0.0025843317 -0.0042525823
000120 e5 22 aa bb d6 c2 91 ba 07 5b f8 3b 59 88 a2 ba
       -0.005192148 -0.0011120688 0.0075792107 -0.0012400254
000130 cb ed 35 bb a0 de b7 bb 19 a3 54 3b 1f f9 fd b9
       -0.0027760144 -0.0056112558 0.0032445847 -0.0004844153
000140 c9 59 df ba 6a 11 93 bb b7 54 87 b9 3c 8a a3 bb
       -0.0017040308 -0.00448816 -0.00025812324 -0.004990844
000150 59 71 90 bb ad dd 81 bc 3a 49 b5 3a c4 90 af bb
       -0.0044080433 -0.015852774 0.0013831027 -0.0053578336
000160 51 6b 1f bc 3a 14 6e ba 60 ad 5e 3b 0b 44 ea 39
       -0.009730176 -0.00090819935 0.0033977851 0.00044682654
000170 55 5c 7a bb 1d 45 ca ba ef 7f 4b bb a9 c1 ad 3a
       -0.0038202007 -0.0015431974 -0.0031051596 0.0013256568
000180 f1 3f 9b 3a 02 f2 27 3b 4b 59 9e bb 00 dd 46 bb
       0.0011844618 0.0025626426 -0.004832422 -0.0030344129
000190 41 87 68 bb c8 a1 96 bb 35 94 5d ba 79 8e 13 3b
       -0.0035481008 -0.0045969225 -0.00084525655 0.002251534
0001a0 0b 8e 54 bb 9b 92 47 ba a1 7a 8d ba ff 7a bf bb
       -0.0032433297 -0.00076130935 -0.0010793993 -0.0058435197
0001b0 42 22 b5 3a 5f 87 c4 3a 4d 9c 39 bb a1 de bd 3a
       0.0013819414 0.0014993957 -0.0028321922 0.0014485904
0001c0 ae d9 f3 bb 4c a3 86 3b 81 c8 0f bc f7 d1 84 3b
       -0.007441721 0.004108822 -0.008775831 0.00405335
0001d0 38 3a 30 bb ce 75 f4 ba f2 b2 bd ba b1 64 4d b9
       -0.002689017 -0.0018650831 -0.0014472886 -0.00019587834
0001e0 91 d9 ef bb 81 19 52 bb 38 e2 8a b8 78 bb 45 bb
       -0.007319637 -0.0032058659 -6.622489e-05 -0.0030171555
0001f0 e7 fb 6c bb e9 58 3c bb f8 cf 87 3b 46 a1 35 bb
       -0.0036160888 -0.0028739518 0.004144665 -0.0027714535

network_body.linear_encoder.seq_layers.0.weight f4 [128, 90]
000000 38 5a fa 3d c9 c0 eb 3c ab 05 87 3c 9e 00 90 3d
       0.12224239 0.02877845 0.016482195 0.07031368
000010 86 2f 32 bd d7 06 94 bd 90 84 d2 bb 68 7b ff bd
       -0.043502353 -0.07227867 -0.006424494 -0.1247471
000020 20 9e 0e be 40 f9 40 3d 8d f4 bf 39 99 7f d9 3c
       -0.13927507 0.047112703 0.00036612563 0.026550101
000030 a4 29 89 bd 29 37 f7 bd 72 bb b3 3c 1c 08 b6 bd
       -0.066973954 -0.12071068 0.021939967 -0.088882655
000040 17 58 2a be 6a c2 56 3b 04 7f ea bd 61 a7 4b 3d
       -0.16635166 0.0032769688 -0.114500076 0.04972017
000050 82 6c 35 3e 2f 5d 3d 3e d0 00 5c 3d 77 74 10 3e
       0.17717174 0.18492578 0.053711712 0.14106928
000060 b1 c9 26 bc 1b 6f 1d 3c fb 22 38 bd eb c4 2c bd
       -0.010179923 0.009609009 -0.044955235 -0.042179983
000070 e1 c4 84 bd 90 22 fd bd e4 4b fa bc 7b 16 2d be
       -0.06482864 -0.12360108 -0.030553766 -0.16903107
000080 02 64 87 bb b6 07 4e bb 8e c4 08 bd 96 91 e5 bd
       -0.004131795 -0.0031437702 -0.033390574 -0.11209409
000090 c5 0a 5b be c8 7f 29 3e 85 26 ed 3c 77 c9 78 bc
       -0.21390827 0.16552651 0.028949032 -0.015184752
0000a0 20 19 06 be 3b 4c 3f be c2 b5 7f 3e d2 08 af 3d
       -0.13095522 -0.18681423 0.24971679 0.08546604
0000b0 ef ef 77 bd 36 a0 01 be d6 29 11 bd 17 dd 2d 3e
       -0.060531553 -0.12658772 -0.03544029 0.1697887
0000c0 00 8b 6f bd 04 d2 42 3d 21 d8 1f bd 67 d7 6f bc
       -0.05848217 0.047563568 -0.039024476 -0.014638758
0000d0 68 b4 95 bd ff 46 29 bd 39 c3 95 bc 36 b5 a5 3d
       -0.073098004 -0.041327473 -0.018281566 0.08091204
0000e0 17 d7 40 3c 67 d9 18 bd 94 41 7f bd 4d df 31 be
       0.011770031 -0.037316706 -0.0623184 -0.17370339
0000f0 1e 73 a3 3d cf 4a 4a 3d 8a d5 b0 3c 07 99 4c bd
       0.07980941 0.04938775 0.021586198 -0.049950626
000100 91 89 26 be 4b 9a db 3d 55 0f 8b 3e ba c3 94 bc
       -0.16263415 0.107227884 0.27160135 -0.018159736
000110 ca d4 7b 3b ba 78 b3 3c 68 0c 5a 3e 22 01 0e bd
       0.0038426393 0.021908153 0.21293795 -0.03466905
000120 02 61 b5 3c f3 21 1c 3e d9 af 11 3e 74 bf b1 bd
       0.022140983 0.15247326 0.14227237 -0.08679095
000130 31 f5 60 3a 5f 36 d3 bd 57 e7 a5 bc 48 b6 47 bc
       0.0008581458 -0.10313105 -0.020251913 -0.012189455
000140 17 64 d8 bd b9 54 72 bd 91 e3 25 be 21 0f 0a 3e
       -0.105659656 -0.05916283 -0.16200091 0.13482334
000150 a9 b3 e8 3d 0e b2 95 3d 83 8f b5 bd 1a f4 98 bd
       0.113623925 0.07309352 -0.08865263 -0.07468434
000160 5b d6 a2 3c 9c 47 1b 3d cb 75 6f be b6 69 2c 3e
       0.019877603 0.03791009 -0.23384778 0.168372
000170 b7 95 c1 bc f0 34 60 be ba 0f f5 3d 54 13 05 be
       -0.02363096 -0.21895194 0.1196589 -0.12995654
000180 d7 cb 38 3c 4a 95 03 bd ad 22 ab 3d 17 60 a5 bd
       0.011279068 -0.032124795 0.08356223 -0.08074968
000190 23 21 e8 3d 02 87 ed bd b8 7a f3 3b 58 6f f1 3d
       0.11334445 -0.11598016 0.0074304007 0.11788815
0001a0 61 d5 27 bd ee f7 a6 bb c2 a8 94 bd 07 2a db 3d
       -0.04097498 -0.0050954735 -0.072587505 0.107013755
0001b0 5c 76 98 3c db dc 05 3e 33 c0 07 be 56 6e 10 3d
       0.018611126 0.13072531 -0.13256912 0.035261475
0001c0 d7 fa 8d 3d b2 5a 63 bd 4d 04 07 3e ca c8 e7 bd
       0.069326095 -0.055506416 0.13185234 -0.11317594
0001d0 c8 8d 79 be 4f 56 11 be c2 b4 83 3d 88 49 96 3c
       -0.24370492 -0.1419308 0.06430961 0.01834561
0001e0 29 52 01 3e 4f ec ff 3d 3a 71 52 3e bc 8f c0 bd
       0.12628998 0.12496244 0.20551005 -0.09402415
0001f0 23 ea 22 bd ce b4 2f 3c 33 ec 1d be bc 03 58 3e
       -0.03977407 0.01072426 -0.15422134 0.21095175
000200 2c f5 05 3c b8 a9 fe bb e6 0a d6 3c 92 f5 22 3e
       0.008176129 -0.007771697 0.026128244 0.1591399
000210 cb 58 7d 3d 58 e6 8e 3b 5e 84 a5 bd c3 78 e0 3d
       0.061852258 0.004360955 -0.08081888 0.109605335
000220 59 5f b7 3d 72 a4 d9 3d 02 c4 86 3b f6 bf af bd
       0.08953733 0.106270686 0.0041127214 -0.085815355
000230 d7 ae dc 3d 91 4e 5e 3d 73 fe 42 bd 87 49 1b be
       0.107755356 0.054274146 -0.047605943 -0.15164767
000240 fd 60 74 bd ab 35 ec bd 75 d4 fe 3c c9 29 58 3d
       -0.059662808 -0.11533674 0.031107167 0.052774224
000250 4c d7 99 bd 39 74 2e 3e 57 bd 7f 3d 4c 54 05 3e
       -0.07511768 0.17036523 0.062436428 0.13020438
000260 19 a8 38 3d 36 41 58 3c 3b 5f 0c bb b5 55 3c bc
       0.045082185 0.013199141 -0.0021419066 -0.0114950435
000270 a6 22 b1 3c 92 af 8c bd b9 51 01 be 0f ac 14 39
       0.021622967 -0.06869425 -0.12628831 0.00014178477
000280 60 67 d1 bc cd da 86 bc aa eb 62 3e 0b 75 18 be
       -0.025561988 -0.016461754 0.22160211 -0.14888398
000290 82 92 00 be 63 41 27 3e 9f af 0f be f3 0e 08 3d
       -0.12555888 0.16333537 -0.14031838 0.03321738
0002a0 9a e2 ef bd e6 53 03 be e6 2f dc 3a 83 53 bb bd
       -0.11713143 -0.12824973 0.0016798943 -0.09146788
0002b0 2b 7c a5 3d c3 28 f3 3c e7 8f 66 bc 1b 2b 8a bd
       0.08080324 0.029682523 -0.014072395 -0.06746503
0002c0 53 c3 79 bd a8 6b b9 3d cb 64 12 3e 06 7f c1 3d
       -0.06097729 0.09053737 0.14296262 0.09448056
0002d0 ee af 10 be 01 fd 57 3d 23 69 38 3d 1f df 48 3e
       -0.14129612 0.052731518 0.04502214 0.19616364
0002e0 a2 da 03 be b2 af c3 3d 35 b5 09 3e 83 a1 d6 3d
       -0.1287637 0.095549956 0.13448031 0.10480025
0002f0 27 9f 49 be 76 47 0b bd f0 d5 15 3d d5 49 a7 3c
       -0.19689618 -0.034003697 0.03658098 0.020420948
000300 61 4d de bd d6 56 47 3d 49 50 a1 3d 25 a1 3c bd
       -0.108546026 0.048666798 0.07876641 -0.046052117
000310 1d e7 22 bd 20 4a 23 bd 57 35 1b 3d 8d 82 81 be
       -0.039771188 -0.039865613 0.037892666 -0.25294915
000320 41 dc bd 3d 12 b6 02 be 60 c7 c3 3d ae 50 b4 bd
       0.09270526 -0.12764767 0.09559512 -0.08804451
000330 c8 83 95 bd 8d 64 da bd 1c 0e 15 3e cc 40 f0 bb
       -0.07300526 -0.1066371 0.14556164 -0.007331943
000340 eb da ef bd aa b8 82 bd ee 50 9a bd 82 df f0 3c
       -0.11711677 -0.06382878 -0.07534967 0.029403452
000350 e2 34 e0 3d fa a2 fd bd 9a ec f4 bc a9 43 54 bd
       0.109475866 -0.12384601 -0.029897977 -0.05182234
000360 bf 5c e1 bd 8e 68 f3 bc 5b 88 57 bd 35 bf da 3d
       -0.11004018 -0.029712941 -0.052620273 0.10681001
000370 72 0f ba bc 0d fe c0 3c 32 b0 1b bd 11 2e e7 3c
       -0.022712443 0.02355864 -0.03800983 0.028220208
000380 1e 88 2f bd 80 ec ac bd fd 21 0b 3e 45 d2 fb bd
       -0.04285442 -0.08443546 0.13587184 -0.12295965
000390 e9 a4 2a be 79 0f 09 be cf 4a 43 3c 62 4c c8 3d
       -0.1666447 -0.13384809 0.011919691 0.09780194
0003a0 66 b5 d3 3d 2a 82 e5 bd be a9 83 3d b9 0b 28 be
       0.103373334 -0.112064674 0.0642886 -0.16410722
0003b0 0e d8 5c 3c 11 eb 81 bd 54 7a 7e 3d 22 8a 2d 3e
       0.013479246 -0.063436635 0.06212838 0.16947225
0003c0 52 ed d4 3d 51 34 00 3d a2 12 a2 3d 46 a5 00 3e
       0.10396828 0.031299893 0.0791371 0.12563047
0003d0 98 b6 e9 bd e0 48 1b 3e 89 b9 d1 3c 72 14 e3 bd
       -0.1141178 0.15164518 0.025601165 -0.11087884
0003e0 df 10 38 bd 6a 27 00 be 61 76 21 3e 7d 03 d0 bd
       -0.044937965 -0.12515035 0.15767814 -0.10156915
0003f0 6c 36 c2 bd 2e 0d fc bd 0f 29 9d bd fa ed bb 3d
       -0.094830364 -0.12307201 -0.07673847 0.0917625

network_body.linear_encoder.seq_layers.2.bias f4 [128]
000000 64 e9 b0 3a 99 0d 94 b8 16 69 a2 bb 6e e1 29 bb
       0.001349729 -7.059723e-05 -0.004956375 -0.002592172
000010 b5 3f 84 bb cd 06 50 b9 54 7b 3d bb 17 af ba ba
       -0.004035915 -0.00019838959 -0.002891262 -0.0014242855
000020 3d ed c5 bb 85 04 ef b9 fa cb e2 ba 9b 0e 48 3a
       -0.006040244 -0.00045589 -0.0017303221 0.0007631571
000030 a7 dd be 39 7c 7e d3 ba 95 7c 95 ba 8d 56 fd ba
       0.00036404768 -0.0016135718 -0.0011404926 -0.0019328162
000040 a7 60 26 3a 8f a3 71 3b a9 87 8a 3b 1d f1 07 ba
       0.00063468 0.003687117 0.0042275977 -0.000518577
000050 5b 11 70 3a 82 75 bc ba c7 96 3f bb 41 76 9e 3a
       0.00091578596 -0.0014378282 -0.0029234157 0.0012089686
000060 98 d9 52 bb 07 76 59 bb 93 2b 82 ba d5 23 a7 bb
       -0.0032173153 -0.0033181922 -0.0009931199 -0.005100707
000070 e8 a5 8e bb 4f f1 86 bb 07 ad be ba e2 c1 74 39
       -0.0043532737 -0.0041181217 -0.0014547416 0.0002334188
000080 38 43 6e 39 48 09 d9 ba 5a e3 9a b9 37 5a 86 39
       0.0002272249 -0.0016558552 -0.0002954256 0.00025625687
000090 57 0d 9d 38 49 18 f9 ba a5 5b db bb 6c ee 3f 3a
       7.488828e-05 -0.001900443 -0.0066942745 0.00073215994
0000a0 a4 5d 62 bb 04 2d 0d ba 43 3a b7 ba 0e 39 cb bb
       -0.0034540677 -0.0005385431 -0.0013979155 -0.00620187
0000b0 24 b9 84 ba 73 90 10 3c 59 08 4f 3a 72 73 54 3a
       -0.0010125977 0.008823502 0.0007897667 0.0008104361
0000c0 f1 7c 84 ba 76 0e c3 bb b7 90 b0 b9 22 40 24 bc
       -0.0010108036 -0.0059526516 -0.00033677157 -0.010025056
0000d0 ae 86 54 3a 89 b8 50 b9 b2 1b d6 b7 dd 98 44 ba
       0.0008107227 -0.0001990517 -2.5523685e-05 -0.0007499585
0000e0 7d 73 d4 ba 69 de 14 b9 c5 a6 c2 39 88 78 b7 b9
       -0.0016208735 -0.00014197234 0.00037126816 -0.00034994283
0000f0 17 8d bf ba 4a 2a cd bb 98 21 94 ba 18 44 cd b9
       -0.0014614192 -0.0062611448 -0.0011301516 -0.0003915138
000100 a8 4d 26 bb 80 de 83 ba d6 a0 ba bb 65 b9 d7 3a
       -0.0025375877 -0.0010060817 -0.0056954427 0.001645845
000110 a2 25 9a bb 77 38 8c 3a ea 1d a2 bb 9f 75 e9 bb
       -0.004704193 0.001069798 -0.0049474137 -0.007124617
000120 82 34 55 ba 2a bf 94 b7 51 a9 a1 ba c1 65 37 bb
       -0.00081331294 -1.7731993e-05 -0.0012333785 -0.0027984234
000130 dc cf f7 ba c6 e1 a2 bb 7b 08 44 b9 f9 a2 47 ba
       -0.0018906551 -0.004970762 -0.00018695176 -0.00076155324
000140 36 5f 0e bb 27 17 4a bb 2d 28 14 bb e6 82 19 ba
       -0.002172423 -0.0030836554 -0.0022606954 -0.0005855992
000150 c6 a7 25 ba 67 7d b4 ba ca fb d1 ba f5 82 9e ba
       -0.00063192507 -0.0013770283 -0.0016020474 -0.0012093472
000160 fa f8 31 bb a7 09 eb ba b6 2c 66 bb 41 c0 4c ba
       -0.0027156458 -0.0017931954 -0.0035121865 -0.00078106305
000170 b1 f4 3e 3b ea 6d db ba 7b e9 7e bb 8b f8 ae 3a
       0.0029137547 -0.0016741131 -0.003889649 0.0013349218
000180 9f fd 08 3b 48 b0 96 bb 45 e6 08 3a 0c 39 c9 3a
       0.0020903123 -0.004598651 0.0005222301 0.0015352084
000190 0e 87 15 bc 8b 6a 1a bb 39 1f 6e bb 4a 8e 13 bb
       -0.009126438 -0.002356204 -0.0036334528 -0.002251523
0001a0 62 14 41 3b 34 52 16 3a 16 9a 4a 3b c1 d7 9c ba
       0.0029461612 0.0005734295 0.0030914596 -0.0011966155
0001b0 b9 3f 8e ba 7c 64 ce bb f3 98 4f 3a fd 1d 1a bb
       -0.0010852731 -0.0062985998 0.00079192145 -0.002351641
0001c0 a1 4c 1c bb 17 fd d9 3a 15 a3 b1 ba 9e 93 d1 bb
       -0.0023849385 0.0016631213 -0.001355263 -0.006395771
0001d0 cb 6a 8a bb 3c 95 73 bb 1f c1 40 bb 92 22 8d bb
       -0.0042241565 -0.0037167808 -0.0029411984 -0.0043070996
0001e0 5a bd b8 3a 52 c8 5e ba 92 d9 ef ba 84 00 3a ba
       0.0014094517 -0.0008498478 -0.0018299094 -0.0007095414
0001f0 f9 c2 1a bb 32 4b e1 ba 9d 41 1f 3b c4 66 41 3b
       -0.0023614748 -0.0017188548 0.0024300583 0.0029510716

network_body.linear_encoder.seq_layers.2.weight f4 [128, 128]
000000 c8 22 32 be 4a 56 57 bd 63 54 80 3d 89 91 d9 3c
       -0.1739608 -0.052572526 0.062660955 0.026558654
000010 31 04 71 3d f6 a1 58 bd c2 9f a6 bd c5 27 64 bd
       0.058841888 -0.052888833 -0.0813594 -0.05570199
000020 fc 49 b7 3c d9 a4 1d 3d 8f 6c 36 3d 89 a4 03 bc
       0.022374146 0.03848729 0.044537123 -0.008034834
000030 79 d3 c3 bd 04 7f 8a 3d 8a 91 db bc 39 6f bd bd
       -0.095618196 0.067625076 -0.026802797 -0.0924973
000040 ee 0c d9 bd d5 a5 0c be 33 d5 bd 3d 3e 64 37 bd
       -0.10598169 -0.13735135 0.0926918 -0.044773333
000050 77 59 a2 bd 77 57 c8 bd 54 50 72 bd 27 a8 aa 3d
       -0.0792722 -0.097823076 -0.059158638 0.08332854
000060 5c 05 9d 3c 52 2d 4c 3d db 71 2b bc 93 34 8e 3d
       0.019167595 0.04984791 -0.010464157 0.069436215
000070 72 b9 bf bd 16 8c 2b be 8c d3 01 be f1 a6 5a bd
       -0.09361543 -0.16752657 -0.12678355 -0.053381864
000080 54 38 b6 3d 00 0a 29 3d 9d 84 4a bc 4d d7 30 bd
       0.088974625 0.041269302 -0.012360719 -0.043174077
000090 c5 f4 31 be d5 1b 8d bc 1f 2d 60 3c 8d bb ea 3b
       -0.17378528 -0.017225185 0.013682633 0.007163471
0000a0 d4 bb 79 bd eb 7d bf bc 79 77 2c 3e 0e 71 19 3c
       -0.060970142 -0.023375472 0.1684245 0.009365333
0000b0 f1 f5 fe 3d ba 66 88 bd 6f 9b f6 3c 6d 39 a5 3c
       0.12449253 -0.066602185 0.030103413 0.020168984
0000c0 e4 08 2f 3e 87 c9 db 3b af dd 0f bc e4 fd 29 3d
       0.17093235 0.0067073735 -0.008780881 0.041501895
0000d0 bc 0f 4e 3e 7b ae 39 bd 26 a2 a2 3c 25 c4 62 bd
       0.2012319 -0.045332413 0.019852709 -0.05536284
0000e0 f6 b6 a0 3d 7b 5d 3c 3d 26 af 84 3d f5 31 80 bc
       0.07847397 0.045987587 0.064787194 -0.015648821
0000f0 1c e8 e0 3d 91 da 01 bd e8 c0 26 bd 81 47 0c 3e
       0.10981771 -0.03170258 -0.040711313 0.13699152
000100 cf 1f 8e bd 50 a4 44 bd 0e 02 6f 3d 01 75 b8 3d
       -0.06939661 -0.048008263 0.05835157 0.09006692
000110 0d 6f 6b 3d ea b4 c9 3d dd 93 4c bd 4c 04 77 3c
       0.057478953 0.0984896 -0.0499457 0.015076708
000120 5f 62 49 bc 88 b6 ca bd 76 97 02 be c7 9d e8 3d
       -0.01229152 -0.09898096 -0.1275309 0.11358219
000130 9e 3e d9 bd 65 76 bc bc e6 0c 84 bd 1f b6 33 3e
       -0.106076464 -0.023005674 -0.06447773 0.17549942
000140 25 53 c3 bd 50 8b 69 bd c5 5f 9a 3c 15 8e e7 3d
       -0.09537343 -0.057017624 0.018844495 0.11306397
000150 71 84 b7 3d 5e 71 48 3d 47 87 97 3d 18 12 11 3e
       0.08960808 0.04893624 0.07398849 0.14167058
000160 1e d3 ac bd 31 5e 41 bd 62 02 07 bc 08 78 3c 3d
       -0.08438705 -0.04720897 -0.008240314 0.04601291
000170 a3 cf 56 3d 72 78 c6 3d 04 d4 a2 3c e8 7c e8 3d
       0.05244411 0.09690942 0.019876488 0.11351949
000180 78 2a 93 3d 6c b4 27 3e bf 2a 1b be a2 7e 75 bd
       0.07185835 0.16377419 -0.15153025 -0.05993522
000190 de bf 32 bc a5 da 18 be 98 fe 00 bd b4 63 fb 3d
       -0.0109100025 -0.14927156 -0.0314928 0.12274876
0001a0 d3 94 1b bc 3d 6c 1f 3e a8 b9 66 bd f7 84 fb bd
       -0.009495932 0.15568633 -0.0563294 -0.122812204
0001b0 65 11 b7 3d 8a 90 5e bd aa 1c da 3c 03 46 6b bd
       0.089388646 -0.054337062 0.026624996 -0.057439815
0001c0 25 db f9 bd 3f e3 66 3d ca 26 e5 3d 29 9b a2 bd
       -0.122000016 0.056369063 0.11189039 -0.07939751
0001d0 07 6a 2e 3e 6c 9a 70 be e1 bf f7 bc 54 49 9b 3d
       0.17032634 -0.23496407 -0.030242862 0.075823456
0001e0 cf e8 f4 bc 10 be 77 3c fe dd 46 3e cb 94 56 bd
       -0.029896168 0.015120998 0.19420621 -0.052387994
0001f0 b1 5b f0 3d b0 9d e0 3b 09 65 4d bd eb b1 1c bd
       0.11736239 0.0068547353 -0.050145183 -0.038255613
000200 30 56 7d bd 07 da d4 bd 9b 3f 24 3d 7c 72 0a 3e
       -0.061849773 -0.10393148 0.04009972 0.13520235
000210 e9 b4 a9 3d 80 a0 16 be f6 f7 03 be 67 74 32 3d
       0.08286459 -0.14709663 -0.12887558 0.04356804
000220 c8 72 a4 bd a8 f2 e8 bd 9c d7 84 3d 18 42 1c 3e
       -0.08029705 -0.11374408 0.06486437 0.15259588
000230 ed 2a 04 3e f2 21 88 3d 0b a8 8d bd 1c fc 9d 3d
       0.12907 0.066470996 -0.06916817 0.07714102
000240 dc 79 41 3e 1a a0 41 3c 17 89 73 3d e4 79 1b bd
       0.18894142 0.011817956 0.05945691 -0.03795804
000250 ff 10 9e bd 5b 02 b4 3d 35 8d 04 be 86 74 10 be
       -0.077180855 0.08789512 -0.12944491 -0.1410695
000260 2d 57 be 3d b4 9a 0c 3e 74 e7 4e bd 7b a6 80 bc
       0.09293971 0.1373089 -0.0505137 -0.015704384
000270 76 80 47 bd 0e a9 52 3d e4 e5 56 3c 4d 7d ec bb
       -0.048706494 0.051430754 0.013116334 -0.0072170855
000280 1c 4c 77 bd 1a 64 48 3d 99 a9 a8 bd ad 3a 0d be
       -0.060375318 0.04892359 -0.08235473 -0.13791914
000290 0a 2a ce 3c 17 a9 d3 3d 65 a0 00 be f1 52 48 3d
       0.02516653 0.10334986 -0.12561186 0.048907224
0002a0 97 42 c1 bb 9f 46 1b be 09 5c 6b 3d 58 05 9a bc
       -0.0058978307 -0.15163659 0.05746082 -0.018801376
0002b0 e2 3f 72 3d 0e 83 eb 3d 73 b3 80 3d 41 77 64 bc
       0.059142955 0.11499606 0.06284227 -0.013944448
0002c0 39 44 9b bd 54 5c 46 3d c1 ff ce bd 5a 62 7d bd
       -0.07581372 0.048427895 -0.10107375 -0.061861373
0002d0 85 e8 21 3e 66 c9 c7 bd 72 f2 01 bc d7 8e 28 be
       0.15811355 -0.097552106 -0.007931339 -0.16460739
0002e0 82 de 31 3d 21 63 d1 bd 75 ae b2 3b 87 c0 29 3e
       0.04342509 -0.102239855 0.005452926 0.1657735
0002f0 cf 5b d6 bb e1 02 7f 3b 0a f1 2f 3a 8d a5 73 be
       -0.006541706 0.0038911628 0.0006711638 -0.23793621
000300 c9 68 4d 3e 23 c8 0a bd 7b a8 e8 bd 8e cd 6b bd
       0.20059504 -0.03388227 -0.1136026 -0.05756908
000310 3f 3f e6 3d 05 c8 57 bd d4 9c 12 3e 5f 64 07 3d
       0.11242532 -0.052680988 0.14317638 0.033054706
000320 28 b7 42 be a9 c8 bd bd 94 9c aa bc 0b 08 fc 3d
       -0.19015181 -0.092667885 -0.020826615 0.123062216
000330 e7 ef ff bc 33 26 8a bd 02 bb 06 bd 0a 98 87 3d
       -0.031242324 -0.06745567 -0.03289319 0.06620796
000340 f9 8b de bc cc 01 46 3e cd 84 45 3d 08 85 02 be
       -0.027166354 0.19336623 0.04822235 -0.1274606
000350 a8 3e b3 bb 17 16 af 3d ac 98 df 3d 46 11 02 be
       -0.0054701157 0.08549135 0.10917792 -0.12701902
000360 19 b6 fc 3c a3 e3 e7 3c 4e 22 3f 3e 9c 3c e4 bc
       0.03084855 0.028306788 0.1866543 -0.027860932
000370 e9 31 65 be 5a 9b 77 3c bb f2 69 3d 3a 7a 31 3e
       -0.2238232 0.015112722 0.05711625 0.17331782
000380 7a 27 35 3e 48 05 bc 3d c5 d6 33 be 9b dc 1f 3d
       0.1769084 0.09180695 -0.17562397 0.039028745
000390 7c fa 93 3d f7 5e 77 3d 5f 9d 49 3d 94 73 0d be
       0.072255105 0.0603933 0.049222346 -0.13813621
0003a0 a3 af 32 3e 0f ce 03 3c be 90 7e bb 24 0a 05 3e
       0.17449813 0.008044734 -0.0038843597 0.1299215
0003b0 22 9b 88 bd c4 6d a2 bc c6 82 bd 3c 91 15 8c 3c
       -0.06670214 -0.019827731 0.023133647 0.017100127
0003c0 e8 90 a8 bd 74 6b 03 bb 92 42 be bd ec 20 a1 3d
       -0.08230764 -0.002005306 -0.09290041 0.078676075
0003d0 d0 c5 3b bc e9 6c 6e 3d fa 3a 59 bc 71 80 d5 bd
       -0.011460736 0.058209334 -0.01325869 -0.10424889
0003e0 a7 2c 11 bd 26 35 92 bd df 8f 5f bd 20 0d 8a be
       -0.035442974 -0.071390435 -0.054580566 -0.2696314
0003f0 64 77 2c 3e fb b5 06 bd ca 4d 03 be 59 28 af 3d
       0.16842419 -0.032888394 -0.12822643 0.085526176
