Assets/ML-Agents/Brains/MovementTrylats.onnx (onnx, 141016 bytes, 7 tensors)

action_model._continuous_distribution.log_sigma f4 [1, 5]
0	0x3c05ac6e	0.008158786
1	0x3beb8ac0	0.007188171
2	0xbb45048a	-0.003006252
3	0xbd909496	-0.070595905
4	0x3c085de0	0.008323163

action_model._continuous_distribution.mu.bias f4 [5]
0	0xb8eeaaf0	-0.00011380564
1	0x3b0d178e	0.0021528932
2	0x3b7286f8	0.0037006717
3	0x3bfa430f	0.0076373885
4	0xbb8d503d	-0.0043125437

action_model._continuous_distribution.mu.weight f4 [5, 128]
0	0x3bbcefc9	0.0057658893
1	0x3d196f3d	0.0374596
2	0x3b235ea1	0.002492823
3	0x3b2cf990	0.0026393868
4	0x3ccb9ca9	0.024854975
5	0xbd23ee08	-0.040021926
6	0xbb5937e3	-0.0033144883
7	0x3b4a4b58	0.0030867662
8	0x3d24dcdd	0.040249694
9	0x3b543aaf	0.003238361
10	0x3a216de4	0.00061580376
11	0x3c8e2b85	0.017354736
12	0x3c906689	0.017627018
13	0xbc857755	-0.016292254
14	0x3c9e96a2	0.019358937
15	0xbb3ecc0a	-0.0029113316
16	0xbccd8095	-0.025085727
17	0xbc9db6a9	-0.019252138
18	0x3cd10dc1	0.025519254
19	0x3cb5666b	0.022143563
20	0xbc0d0a1c	-0.008608367
21	0x3cd07ddb	0.025450638
22	0xbbba8483	-0.005692066
23	0x3d0e5fd9	0.034759376
24	0x3bcd1e5c	0.0062597226
25	0xbcf5002c	-0.029907309
26	0xbc1ed703	-0.0096948175
27	0xbbd38920	-0.0064555556
28	0xbabd11d9	-0.0014424875
29	0x3b8b628a	0.00425369
30	0x3c9eaabc	0.019368522
31	0xbb204373	-0.0024454265
32	0x3c49244f	0.012276723
33	0xbc070eae	-0.008243246
34	0x3bdd3009	0.006750111
35	0xbb570307	-0.00328082
36	0x3c2f77bf	0.010709702
37	0xbc8c75a8	-0.017145947
38	0x3c265ac5	0.010153477
39	0xbc152148	-0.009102173
40	0x3cfa21e5	0.03053374
41	0x3ca61015	0.02027134
42	0x3b44cfa2	0.0030030985
43	0xbaf0c0be	-0.0018367989
44	0xbcaed40c	-0.021341346
45	0xbbe77ab9	-0.00706419
46	0x3c20da74	0.009817708
47	0x3cc4688d	0.023975635
48	0x3b844489	0.0040364903
49	0x3acd67d8	0.0015671207
50	0x3bed81bb	0.007248131
51	0xbc801f8b	-0.01564004
52	0xbc3aba13	-0.011396903
53	0x3b28fd07	0.0025785582
54	0x3c469ed1	0.012122826
55	0xbc59818b	-0.013275514
56	0x3bd19984	0.0063964743
57	0xbca1c4fa	-0.019747246
58	0x3b175847	0.002309339
59	0xbc924c8e	-0.01785877
60	0xbce4fba6	-0.027952027
61	0x3c9c439e	0.019075211
62	0x39e90e1c	0.00044451735
63	0xbce98307	-0.028504862
64	0x3bd15fef	0.00638961
65	0xbd07be56	-0.033140503
66	0xbaac908a	-0.0013165635
67	0x3bf1f889	0.007384364
68	0x3d2051fa	0.03914068
69	0xbd678aee	-0.056528978
70	0xbbd4c41c	-0.0064931046
71	0xbc09f115	-0.008419295
72	0x3c1c4184	0.0095371045
73	0xbcf6d468	-0.03013058
74	0x3c0bab24	0.00852469
75	0xba9d5840	-0.001200445
76	0xbc9f5e6f	-0.01945421
77	0xbc4a6247	-0.012352533
78	0x3c85c7f9	0.016330706
79	0xbc14fb0c	-0.009093057
80	0x3d14d159	0.036332462
81	0x3c467fe6	0.012115454
82	0x3bf016a0	0.007326916
83	0xbc2e3e5b	-0.010634984
84	0x3d0a3a68	0.033747107
85	0x3a81c649	0.0009901013
86	0x3c60cf52	0.013721304
87	0x3c93df0d	0.018050695
88	0xbc9e8cbd	-0.019354219
89	0xbc88ae4e	-0.016684677
90	0x3c433ec0	0.011916816
91	0xbc959005	-0.01825715
92	0xbd06ac33	-0.032879066
93	0x3c9f11cb	0.019417664
94	0xbc46f7b0	-0.012144014
95	0xbc3313ef	-0.0109300455
96	0x3b3f5277	0.002919344
97	0x3cdb2dea	0.026755292
98	0x3cf3fe32	0.029784296
99	0x3bd5b06a	0.0065212743
100	0x3cea2c82	0.028585676
101	0xbca61b36	-0.020276647
102	0x3c37b642	0.011212887
103	0x3cb8dc9f	0.022566138
104	0xbaa5f97a	-0.0012662851
105	0x3aca4e26	0.0015434667
106	0xbc18e68e	-0.009332312
107	0xbc163264	-0.0091672875
108	0x3a4ff384	0.000793271
109	0xbb8d1a2f	-0.0043061
110	0xba07a113	-0.0005173843
111	0x3cabf059	0.02098863
112	0x3c2e3774	0.010633338
113	0xbd4c0062	-0.049805053
114	0x3cd0b735	0.025477985
115	0x3c4ec4c4	0.012620155
116	0x3894ed67	7.1014096e-05
117	0x3c08e2f1	0.008354888
118	0x3c2d82db	0.01059028
119	0xbcae7047	-0.021293772
120	0x3c81b090	0.015831262
121	0x3c802a09	0.015645044
122	0xbcf0b637	-0.029383762
123	0x3c89e661	0.016833486
124	0x3c6d1212	0.01446964
125	0xbcd58a60	-0.026066959
126	0x3b2ef394	0.0026695477
127	0xbcf6f9f2	-0.03014848
128	0xbb36782c	-0.0027842624
129	0xbd4ea664	-0.05045165
130	0x3c56b17b	0.013103838
131	0x3c2e26c2	0.010629358
132	0x3cc5b522	0.024134222
133	0xbd3860d1	-0.045014206
134	0x3b9c6cd8	0.0047737174
135	0x3cad3083	0.021141296
136	0xbb6ab74a	-0.0035814815
137	0x3ce9339c	0.028466992
138	0x3cef896a	0.029240329
139	0x3ba1b9be	0.0049354723
140	0x3d01ec64	0.03171958
141	0x3c33edcb	0.010981987
142	0xbace569d	-0.0015742366
143	0x3bfa1342	0.0076316902
144	0x3b18692a	0.0023256042
145	0x3b8a9fb1	0.0042304625
146	0x3c2a80f5	0.010406722
147	0xbad824e7	-0.001649049
148	0xbc4ee7f0	-0.01262854
149	0xbc479168	-0.012180664
150	0xbc84ba1b	-0.016202023
151	0x3c7f2548	0.015572853
152	0x3a2510fd	0.0006296782
153	0x3a28578e	0.0006421738
154	0x3b8159e4	0.0039474834
155	0xbc0227ae	-0.007944031
156	0xbb880c6f	-0.004151873
157	0x3b39a764	0.0028328532
158	0x3c5adb61	0.013357968
159	0x3b6e6023	0.003637322
160	0xbc04e1df	-0.0081104925
161	0xbc466f46	-0.012111491
162	0xbae9b681	-0.001783088
163	0x3b9b328e	0.004736251
164	0x3c79b15d	0.015240041
165	0x3c8551b2	0.016274307
166	0x3d1249d7	0.03571495
167	0x3cb0468b	0.021518013
168	0xbc5ba574	-0.013406146
169	0x3c9dfb66	0.019284915
170	0x3c421a73	0.011847126
171	0xbc2e8e8a	-0.010654101
172	0xbc19b370	-0.00938116
173	0xbc6be139	-0.014396959
174	0x3d02ca08	0.031930953
175	0xbcb64121	-0.022247853
176	0x3c1a0a23	0.009401831
177	0xbb4f2ae6	-0.0031611263
178	0xba21b1f6	-0.0006168181
179	0x3bf597db	0.007494909
180	0x3c31b0ff	0.010845422
181	0x3bf84827	0.0075769606
182	0xbb269584	-0.0025418708
183	0xbad04e7c	-0.0015892531
184	0xbc965c47	-0.018354548
185	0xbca8652e	-0.020556059
186	0xbc84bc61	-0.016203107
187	0x3b9663c9	0.004589532
188	0xbd0214d5	-0.03175815
189	0xbc520f2e	-0.012821002
190	0x3b0490a2	0.002022781
191	0x3c8cf5ef	0.017207114
192	0x3a5e0f0b	0.00084708695
193	0x3c616b62	0.013758512
194	0x3cfde15a	0.030991245
195	0xbb2a2907	-0.0025964396
196	0x3bf11138	0.007356789
197	0x3beaab3c	0.007161526
198	0xbb4d96fc	-0.0031370511
199	0xbd435f07	-0.047698047
200	0x3c6ba8e8	0.014383532
201	0xbb2d4047	-0.0026436017
202	0x3b43f926	0.0029903143
203	0x3c3a0206	0.0113530215
204	0xbca6b0c8	-0.020347968
205	0x3c102f12	0.008800285
206	0xbca300e5	-0.019897887
207	0x3c15c382	0.009140851
208	0xbb911281	-0.0044272547
209	0x3d148ec5	0.036268968
210	0xbc7b55fc	-0.0153403245
211	0x3c81ddc8	0.015852824
212	0xbb4107a0	-0.0029454008
213	0x3bc23825	0.005927103
214	0x3c2dca4f	0.010607316
215	0xbd08fb5f	-0.03344285
216	0xbd0999f1	-0.033594076
217	0x3c2c62d0	0.010521606
218	0x3c4adb29	0.012381353
219	0xbb35282a	-0.0027642348
220	0xba22c425	-0.00062090374
221	0xbd0e5da2	-0.034757264
222	0xbc675af7	-0.014120809
223	0xbca0ddf1	-0.01963708
224	0xbc0a2d42	-0.008433642
225	0x3b90fb57	0.0044244933
226	0x3c47955c	0.012181606
227	0x3b5777d3	0.0032877817
228	0x3ce367c4	0.02775944
229	0xbc8a9a5d	-0.01691931
230	0xbbcee778	-0.0063142143
231	0xbc8e0e50	-0.01734081
232	0x3c481659	0.012212359
233	0x3add2102	0.0016870799
234	0x3bcedd83	0.0063130273
235	0xbb6625f5	-0.003511784
236	0xbcfa71cc	-0.03057184
237	0x3cd2658b	0.025683185
238	0x3d093e0e	0.033506446
239	0xbc596bce	-0.013270332
240	0x3ce258b2	0.027630184
241	0x3c22ba05	0.009932046
242	0xbcfff8e0	-0.031246603
243	0xbc5da95c	-0.013529148
244	0x3cc0bda3	0.023527926
245	0xbc6d0e04	-0.014468674
246	0x3bfcd593	0.0077158897
247	0xbc418aba	-0.01181286
248	0xbce76a56	-0.028248947
249	0x3b89ec58	0.0042090826
250	0xbc9d5262	-0.019204322
251	0x3c7fb4e1	0.01560709
252	0xbd076cfe	-0.033062927
253	0x3b6c3156	0.0036040149
254	0x3bd417e7	0.006472576
255	0x3c5a3b81	0.013319851

network_body.linear_encoder.seq_layers.0.bias f4 [128]
0	0xbc0be4bd	-0.008538422
1	0xbafb560f	-0.0019175428
2	0xba11d4f9	-0.00055630464
3	0xbbecc039	-0.007225063
4	0xbb916af1	-0.0044377972
5	0xbad19cf3	-0.0015992209
6	0x3bf446ca	0.007454728
7	0xbb72a867	-0.0037026645
8	0x3b1924ec	0.0023367954
9	0xbb380473	-0.0028078824
10	0x3bb798a2	0.005602912
11	0xbc057ccb	-0.008147429
12	0x3b032012	0.002000813
13	0x3ae88aaa	0.001774152
14	0x3b3d0e27	0.0028847547
15	0xbbc2cb1d	-0.005944623
16	0xbc07be4d	-0.008285117
17	0xbbe70c47	-0.007051024
18	0x3c7661c8	0.015037961
19	0xba8bd170	-0.0010667276
20	0x3bf7e7f1	0.0075654914
21	0x3a85a5fb	0.0010196561
22	0xbbabfbe3	-0.005248533
23	0x3b60bf81	0.0034293833
24	0x3b464501	0.0030253532
25	0x3aebe6e4	0.0017997888
26	0xbc39a788	-0.0113314465
27	0x39e3731e	0.00043382583
28	0xbb8cf7b1	-0.004301988
29	0xbb8b41f1	-0.004249804
30	0x3a04ee79	0.00050709356
31	0x3c97cc5a	0.01853006
32	0x3b05e08e	0.0020428034
33	0xbb699c03	-0.0035645969
34	0xbb3ac0f8	-0.0028496366
35	0x3a9026b8	0.0010997867
36	0xbb7bcf85	-0.0038423252
37	0x3bc63f4d	0.0060500265
38	0x3baa7069	0.0052013886
39	0xba0697f8	-0.00051343394
40	0x3c326b94	0.010889906
41	0x3bf65c4f	0.0075183283
42	0xbacf0787	-0.001579509
43	0xbb3049e8	-0.002689952
44	0xbaebc372	-0.0017987324
45	0x3bca9b05	0.0061830305
46	0xb8d07eab	-9.941807e-05
47	0xbb03d26e	-0.002011444
48	0x3c16f8d4	0.009214599
49	0xbbd1271d	-0.0063828365
50	0xba394ad6	-0.00070683414
51	0x3c0bb0ae	0.00852601
52	0xbb9e1e85	-0.0048254156
53	0xbc74b5fa	-0.014935965
54	0xbba37fef	-0.004989616
55	0xbbc1ede1	-0.00591825
56	0x3b3431e3	0.0027495555
57	0xbbff1ac7	-0.0077851745
58	0xbc4de0ac	-0.012565773
59	0xbbd2c2a0	-0.0064318925
60	0x3c0fae39	0.008769565
61	0xba7cd00b	-0.0009644038
62	0x3ae17d72	0.0017203523
63	0xbc2c0122	-0.010498317
64	0xbc208029	-0.009796181
65	0xba6e5074	-0.0009090968
66	0xbb690196	-0.0035553924
67	0x3a7584b4	0.00093657826
68	0x39014358	0.00012327486
69	0x3aaf3052	0.0013365841
70	0xbaccc225	-0.0015621824
71	0x3be593ce	0.007006145
72	0xba50af17	-0.0007960661
73	0xba74aa4e	-0.00093332387
74	0x3c1a1ae9	0.00940583
75	0xbbcaa6a3	-0.0061844154
76	0xba8c40c2	-0.0010700452
77	0x3bce9af1	0.0063050915
78	0xbbc55f01	-0.0060232882
79	0xbbe1be0f	-0.006889112
80	0xbc56c505	-0.013108497
81	0x3bee6bdf	0.007276043
82	0xbc067dca	-0.008208701
83	0x3b409dfe	0.0029391046
84	0x3b498a49	0.003075259
85	0x3c787e3e	0.015166817
86	0xb8de9414	-0.000106133666
87	0xbbcb7ed7	-0.006210189
88	0xbc6e1a1f	-0.014532595
89	0x3a3f2990	0.0007292265
90	0x396e93f3	0.00022752564
91	0x3c1b5197	0.009479902
92	0xbaf5ac94	-0.0018743449
93	0x3c10d7e6	0.008840537
94	0xbb643a08	-0.0034824628
95	0xbc0c52e2	-0.008564683
96	0x3ae56af1	0.0017503184
97	0x3a42a97b	0.0007425767
98	0xbb85a0ff	-0.00407803
99	0x3b4ab994	0.0030933367
100	0x3bc85e1f	0.0061147357
101	0x3a9170ad	0.0011096202
102	0x3b343349	0.0027496389
103	0x3ba6f299	0.005094838
104	0xbb117416	-0.0022194437
105	0x3ba0d51f	0.0049082185
106	0xbc2b04c9	-0.010438153
107	0xbbd8aa46	-0.006612095
108	0xbb472676	-0.0030387915
109	0xbb16459b	-0.0022929672
110	0x3ba16986	0.0049259095
111	0x3bce2743	0.0062913015
112	0xbbeb2e37	-0.00717714
113	0x3bfdace4	0.0077415574
114	0x3b927cee	0.004470459
115	0x3b06263d	0.002046957
116	0xbb23b48d	-0.0024979443
117	0x3a8d6086	0.0010786213
118	0x3be30ca3	0.0069289966
119	0x3c0fc69c	0.0087753795
120	0xbb827c33	-0.003982091
121	0xbb506894	-0.0031800615
122	0x3aa4405b	0.0012531386
123	0x3a549bf7	0.0008110399
124	0x3bb06edc	0.005384309
125	0xbc066a30	-0.008204028
126	0x3bc2bdd3	0.005943039
127	0xbbbc7879	-0.005751666

network_body.linear_encoder.seq_layers.0.weight f4 [128, 136]
0	0xbd36ea34	-0.044656947
1	0x3bbb6355	0.0057186284
2	0x3cb9e42b	0.022691807
3	0x3d95847c	0.0730066
4	0xbe4ae2c1	-0.19813062
5	0x3d9f5405	0.07779697
6	0xbca80455	-0.020509878
7	0x3e740b26	0.23832378
8	0xbd7bf5f2	-0.06151385
9	0x3c20a03b	0.009803827
10	0x3d271f6a	0.040801443
11	0xbdca2a74	-0.098713785
12	0x3d46653f	0.0484364
13	0xbd855c91	-0.06511796
14	0xbd48bbc3	-0.04900719
15	0xbdde003c	-0.108398885
16	0xbdd457b6	-0.10368292
17	0x3cd50186	0.026001703
18	0x3daeba76	0.08531658
19	0xbdb4c4ac	-0.08826575
20	0x3d2b14bf	0.041767832
21	0xbde68c1c	-0.112571925
22	0x3b89f0ec	0.0042096283
23	0x3e392d91	0.18083788
24	0xbdb38031	-0.08764685
25	0x3db86f95	0.090056576
26	0x3ca16ad4	0.01970426
27	0x3d447105	0.047959346
28	0x3e0c58e8	0.1370579
29	0x3d9b5f1a	0.075864986
30	0xbb33463c	-0.0027355095
31	0x3da65713	0.08122077
32	0xbd1e5704	-0.038657203
33	0x3d054466	0.032535933
34	0xbd34b408	-0.044117004
35	0x3ca055f7	0.019572241
36	0xbc487e73	-0.012237179
37	0xbc148e71	-0.009067164
38	0xbd115fd5	-0.035491783
39	0xbd90e399	-0.07074661
40	0x3d37eafe	0.04490184
41	0x3d62f8ea	0.055413164
42	0xbd9f0fc6	-0.077666804
43	0x3d9d159e	0.07670139
44	0xbc93c11e	-0.018036421
45	0x3dd2e342	0.10297252
46	0xba85bf03	-0.0010204021
47	0xbc9180ca	-0.017761607
48	0x3e726c76	0.23674187
49	0xbcbe9177	-0.023262722
50	0x3d40d90e	0.047082
51	0xbbeb91a4	-0.0071889926
52	0xbd3880ae	-0.045044594
53	0xbe12bf4c	-0.14330786
54	0xbd3618c3	-0.04445721
55	0xbc805ff2	-0.01567075
56	0xbdce28a9	-0.10066349
57	0x3e1b3afa	0.15159217
58	0x3c32d636	0.01091533
59	0xbdb288b5	-0.08717481
60	0x3d3acbc9	0.0456045
61	0x3de2016a	0.11035426
62	0xbe2dac8c	-0.16960353
63	0x3dfc960c	0.12333307
64	0xbcaa2498	-0.020769402
65	0x3dab54a9	0.08365757
66	0x3d9ed978	0.077563226
67	0xbd40bae4	-0.047053233
68	0x3d768221	0.060182694
69	0x3d017662	0.03160704
70	0xbc1a2f7f	-0.009410738
71	0x3d63f0c5	0.055649538
72	0x3ce095c2	0.02741516
73	0xbd1f3912	-0.038872786
74	0x3e00e10d	0.1258585
75	0xbe00536a	-0.1253182
76	0x3e43884e	0.19094965
77	0x3de648e0	0.112443686
78	0xbb20ea7d	-0.0024553828
79	0x3cb8e844	0.02257169
80	0xbd6bd17e	-0.057572834
81	0xbdfff225	-0.12497357
82	0x3c14fb89	0.009093174
83	0xbd95f8af	-0.07322823
84	0xbbea2114	-0.0071450565
85	0x3b41b942	0.0029559885
86	0x3b5dce97	0.003384506
87	0xbda400b9	-0.0800795
88	0xbe267756	-0.1625646
89	0x3b849121	0.004045621
90	0x3e533cd9	0.2062868
91	0xbcc60c10	-0.024175674
92	0x3dbd86b3	0.092542075
93	0xbd04d488	-0.032429248
94	0xbdf31ccf	-0.11870729
95	0x3c9633bf	0.018335221
96	0xbd6e1979	-0.05812976
97	0xbdf92ff9	-0.12167353
98	0xbd4ae03b	-0.04953025
99	0xbe00ec90	-0.12590241
100	0xbdea5fa9	-0.11444027
101	0xbde20cd5	-0.11037604
102	0xbd23c929	-0.039986763
103	0xbc59f3ce	-0.0133027565
104	0x3cb1c95a	0.021702457
105	0x3db2b276	0.08725445
106	0xbd0d0107	-0.034424808
107	0x3e357ef9	0.17724217
108	0x3db8cae1	0.09023071
109	0x3d5c4b08	0.053782493
110	0x3d88a5fc	0.06672284
111	0x3dd1cd77	0.102442674
112	0xbd97a9ed	-0.07405458
113	0xbcc75ad6	-0.024335306
114	0xbc5ac791	-0.013353244
115	0x3da364c6	0.079782054
116	0x3d99b76f	0.0750569
117	0xbdf96320	-0.1217711
118	0xbd1afb50	-0.037837327
119	0x3dce8b60	0.100851774
120	0xbe07e646	-0.13271436
121	0x3cc90e23	0.024542874
122	0xbd53d91f	-0.051720735
123	0x3e0d590b	0.13803498
124	0xbdfe247c	-0.124093026
125	0x3dcd00ec	0.100099415
126	0xbe150c9c	-0.14555591
127	0xbe0d388e	-0.13791105
128	0xbd4bdcac	-0.049770996
129	0x3d8cc406	0.06873326
130	0x3d99784c	0.07493648
131	0xbde119f9	-0.10991282
132	0xbd8b9c14	-0.06816879
133	0x3d28dc98	0.041226
134	0xbd5d80ce	-0.054077916
135	0x3d1e8016	0.03869637
136	0xbd474a4c	-0.04865484
137	0x3dd25f98	0.10272139
138	0x3df4adda	0.11947222
139	0x3da9f744	0.08299115
140	0x3daa68a4	0.0832074
141	0x3d866c0a	0.065635756
142	0xb7a0eb43	-1.9183039e-05
143	0xbd8332e3	-0.0640619
144	0xbd0baee5	-0.03410234
145	0x3d3ec55c	0.046574935
146	0x3d740b84	0.059581295
147	0xbc066c1f	-0.008204489
148	0x3d83b09d	0.06430171
149	0xbd9c09d1	-0.0761906
150	0x3e2b4f57	0.16729484
151	0x3d958204	0.07300189
152	0x3d65fda4	0.056150094
153	0x3c9d1dc0	0.019179225
154	0x3ba90e85	0.0051592016
155	0x3e8cb4c1	0.27481654
156	0x3e061aa1	0.13096096
157	0xbcd73a3b	-0.026272884
158	0x3cf4d34b	0.029885909
159	0xbe099ebe	-0.13439462
160	0x3a2bed14	0.000655846
161	0x3d3b403d	0.04571556
162	0xbc6fe8aa	-0.014642874
163	0xbd997301	-0.074926384
164	0x3cb9660c	0.022631668
165	0xbd45628e	-0.048189692
166	0xbb59269f	-0.0033134592
167	0x3d28b9e7	0.041192915
168	0x3db16cd6	0.08663337
169	0xbd301871	-0.04299206
170	0x3d721923	0.059106003
171	0x3c5bd06d	0.013416392
172	0xbc8c82aa	-0.01715215
173	0x3d8b272a	0.06794579
174	0x3da9b352	0.08286156
175	0x3dc3fabb	0.095693074
176	0xbc230974	-0.009950984
177	0x3d56d9be	0.05245375
178	0xbd487a16	-0.048944555
179	0xbcfc1e13	-0.03077606
180	0xbd187982	-0.037225254
181	0xbdf8e1dc	-0.12152454
182	0xbdbde82b	-0.09272798
183	0xbdd1e0d1	-0.102479585
184	0x3c8fd8e8	0.017559484
185	0x3da76b68	0.08174783
186	0xbd1a1519	-0.037617777
187	0x3da26a54	0.07930437
188	0x3dd47b7f	0.103751175
189	0x3d873cd7	0.06603401
190	0x3dfea833	0.12434425
191	0xbc62932f	-0.013829037
192	0xbccba61d	-0.024859482
193	0xbd909c6f	-0.07061087
194	0xbd8a102c	-0.06741366
195	0x3c8dacd1	0.01729432
196	0xbd768f05	-0.060194988
197	0x3e2cfdd9	0.1689371
198	0x3d23d239	0.039995406
199	0x3d78dbb3	0.060756397
200	0x3e12893e	0.14310166
201	0xbd018a84	-0.03162624
202	0x3d504f49	0.050856862
203	0x3ce21c82	0.027601484
204	0xbd97ea6a	-0.07417758
205	0x3d0e74e9	0.034779463
206	0xbd4b2481	-0.04959536
207	0x3d6b956f	0.057515558
208	0x3c3a2c9f	0.011363178
209	0xbdcf061b	-0.101085864
210	0xbdc73014	-0.09725967
211	0xbe1e4524	-0.15456063
212	0xbda98974	-0.0827817
213	0xbd00a2f0	-0.03140539
214	0xbd45568b	-0.048178237
215	0x3e616668	0.22011721
216	0x3ccf5e1c	0.02531343
217	0x3dc4c688	0.09608179
218	0x3df2c5b9	0.11854119
219	0xbdb625d2	-0.088939324
220	0x3d4cb9e9	0.049981985
221	0xbd8476a7	-0.06467944
222	0x3d92ba32	0.0716442
223	0xbcefe705	-0.029284963
224	0xbe2ca647	-0.16860305
225	0x3e157ef4	0.1459921
226	0x3d3ca8e5	0.046059508
227	0x3da5eada	0.08101435
228	0x3d749f33	0.059722137
229	0x3d02711f	0.031846162
230	0xbd711840	-0.058861017
231	0xbd47a188	-0.048738033
232	0x3e0e325b	0.13886397
233	0xbda09a2a	-0.078419045
234	0x3dc2d48c	0.09513196
235	0x3d8f29d4	0.069904
236	0x3dde1d68	0.108454525
237	0x3d3c5131	0.045975868
238	0x3dcc0b5c	0.09963104
239	0x3dcd082d	0.10011325
240	0x3d9060d0	0.070497155
241	0x3e0bb41e	0.13642928
242	0xbdf7b83b	-0.12095686
243	0xbd64ee9c	-0.055891618
244	0xbc85df2a	-0.016341764
245	0xbdc38c6c	-0.09548268
246	0x3b9b4828	0.0047388263
247	0xbbcb69b4	-0.006207669
248	0x3d8f5286	0.06998162
249	0x3e04aded	0.12956972
250	0x3c940fdd	0.01807397
251	0xbc0f7aa4	-0.008757267
252	0x3dc5ca1c	0.0965769
253	0xbd9c8c50	-0.0764395
254	0x3cbabfb1	0.022796484
255	0x3cd172b0	0.025567383

network_body.linear_encoder.seq_layers.2.bias f4 [128]
0	0xbc001e69	-0.00781975
1	0x3c592ceb	0.013255338
2	0x3c304bb6	0.010760238
3	0x3c0b6812	0.008508699
4	0x3b0958c4	0.002095745
5	0x38f044d3	0.00011456911
6	0x3bb7c3bc	0.00560805
7	0x3b3d52d7	0.0028888488
8	0x3c3c5c0c	0.011496555
9	0x3b4bcecb	0.00310986
10	0x3cc04648	0.023471013
11	0x3b81e3b9	0.0039639142
12	0xbb1405b6	-0.0022586412
13	0x3bc583e2	0.0060276845
14	0xbbc98ff8	-0.0061511956
15	0xbb406628	-0.0029357765
16	0xbb9b15f3	-0.004732841
17	0xbafad92b	-0.0019138207
18	0xbb988de3	-0.004655586
19	0xbbf27895	-0.0073996284
20	0x3baf0795	0.00534148
21	0xbab9b1cd	-0.0014167369
22	0x3b07228d	0.002061996
23	0xbb0af675	-0.0021204029
24	0xbbc0e34c	-0.005886471
25	0xb8ff2150	-0.000121655525
26	0x3b241761	0.002503835
27	0x3c1aeba9	0.0094556
28	0xbae0bd7e	-0.0017146317
29	0x3b528e37	0.0032128224
30	0x3b43d74c	0.0029882966
31	0x396ffb54	0.00022886443
32	0xbb23bb08	-0.0024983305
33	0x3b577de0	0.0032881424
34	0xbb93126b	-0.0044882796
35	0x3a388f84	0.00070404285
36	0xbafaff10	-0.0019149501
37	0xbb1fb86f	-0.0024371406
38	0x3c059710	0.008153692
39	0x3c83ca5e	0.016087707
40	0x3c199b6f	0.009375437
41	0xbb1048dd	-0.0022016086
42	0xbc02a4e3	-0.007973882
43	0xbb49f0e5	-0.003081375
44	0xba81dfd4	-0.0009908625
45	0xbbca8843	-0.0061807944
46	0x3ba1b0e8	0.004934419
47	0xbc0dc2c1	-0.00865239
48	0xbb52838d	-0.0032121867
49	0x3b3c6715	0.0028747965
50	0x3abf1c98	0.0014580665
51	0xbaa7857f	-0.0012780874
52	0x3c1320d9	0.008979999
53	0x3a892197	0.0010462281
54	0xbba387cd	-0.004990554
55	0xbb47aca1	-0.0030467885
56	0xb973b22f	-0.00023240664
57	0xbb56051d	-0.0032656856
58	0x3ae3f4ef	0.0017391721
59	0x39f7fe5e	0.0004730103
60	0xbbde688a	-0.0067873644
61	0xbc0e41f6	-0.0086827185
62	0xbb4320b3	-0.002977413
63	0xba992c3a	-0.0011686154
64	0xbb216acc	-0.0024630306
65	0x3ad9c7c5	0.0016615322
66	0xbb173dd8	-0.0023077633
67	0xbb8c0fe2	-0.0042743543
68	0x3ab97c3b	0.0014151403
69	0x3bc3a7e5	0.0059709423
70	0x3a499719	0.0007690057
71	0x3b088fb5	0.002083761
72	0x3a57a41c	0.00082260533
73	0x3bf17fd1	0.007369973
74	0x3b3fa16d	0.0029240504
75	0x3b57272e	0.003282975
76	0x3c00c2ee	0.007858975
77	0xbc052b73	-0.008128035
78	0x3b39696c	0.0028291596
79	0xbbc1e6ae	-0.0059173917
80	0xbabbd25f	-0.0014329663
81	0x3b0cf159	0.002150616
82	0xb9fc1a08	-0.0004808458
83	0x3b4cde8f	0.0031260585
84	0x3b9fa1ae	0.0048715686
85	0x3c203fcf	0.009780838
86	0x3a4b744a	0.0007761164
87	0xbb6e5500	-0.0036366582
88	0xbb1d432b	-0.0023996334
89	0x3b551950	0.0032516308
90	0xbb7317fb	-0.003709315
91	0x3a9e269a	0.0012065948
92	0x3bf74fa1	0.0075473343
93	0xbb364d4d	-0.002781707
94	0xbbd264c5	-0.006420704
95	0xbbbc4685	-0.0057457113
96	0x3a8514a9	0.0010153252
97	0xbadcec41	-0.0016855077
98	0xbb703aa6	-0.003665605
99	0xbbd90b47	-0.006623659
100	0x3a2c76ff	0.0006579011
101	0xbb4d317a	-0.0031310008
102	0x3c7fe07c	0.015617486
103	0xbac988f5	-0.0015375899
104	0x3cc25c6c	0.02372571
105	0xbb55e48b	-0.0032637443
106	0x3c31e4ce	0.010857774
107	0x3b36f626	0.0027917712
108	0x3b86c52d	0.0041128607
109	0x3c413567	0.011792517
110	0xba58c156	-0.00082685554
111	0x3b8db5a3	0.0043246313
112	0x3bcb59aa	0.006205757
113	0x3c03a677	0.008035294
114	0xbba23801	-0.004950524
115	0xbc04c588	-0.008103736
116	0x3b721464	0.0036938423
117	0xbbeb2f9c	-0.0071773063
118	0xbbf6eafd	-0.007535337
119	0x3c106ad1	0.0088145295
120	0xbbe4f8d1	-0.006987669
121	0x3c6331a8	0.013866819
122	0xbbb77957	-0.0055991816
123	0x3ba48a9f	0.0050214077
124	0xb91f0bbe	-0.00015167796
125	0xbb5aaa23	-0.003336557
126	0x3b0840e5	0.0020790633
127	0xbc171011	-0.009220139

network_body.linear_encoder.seq_layers.2.weight f4 [128, 128]
0	0xbdcdc8f6	-0.10048096
1	0xbd07acad	-0.03312366
2	0x3de1a180	0.11017132
3	0x3d967fd1	0.07348598
4	0xbd833a44	-0.06407598
5	0xbc9de2f0	-0.019273251
6	0xbd8609fc	-0.06544873
7	0x3e02804c	0.12744254
8	0xbde9b620	-0.11411691
9	0x3d41ca48	0.04731205
10	0xbd176601	-0.036962513
11	0x3c28818c	0.010284793
12	0xbc665a37	-0.014059595
13	0xbc2d6e18	-0.01058533
14	0xbd84749f	-0.06467556
15	0xbe1bc324	-0.15211159
16	0xbd956f84	-0.072966605
17	0xbcb1d368	-0.021707252
18	0xbd367072	-0.04454083
19	0x3e337c8a	0.17527977
20	0x3d301bcc	0.04299526
21	0x3d215168	0.039384276
22	0xbc34514b	-0.01100571
23	0x3e1fba9c	0.1559853
24	0x3d953bcd	0.07286797
25	0xbda6488c	-0.08119306
26	0x3e67145c	0.2256636
27	0xbc6edb83	-0.014578703
28	0x3c8b8fa5	0.017036268
29	0x3d748efc	0.059706673
30	0xbc034ee8	-0.008014418
31	0xbd484d80	-0.048902035
32	0x3ced761d	0.028986985
33	0x3bb07609	0.0053851646
34	0x3dde7ad8	0.10863274
35	0x3de9140b	0.11380776
36	0x3d926a54	0.07149187
37	0xbd8dd7ec	-0.069259495
38	0xbd9ef70c	-0.07761964
39	0x3db7e07c	0.08978364
40	0xbdbfaf6f	-0.09359633
41	0xbdc9777a	-0.098372415
42	0x3da3826e	0.07983862
43	0xbd2778fc	-0.040886864
44	0xbb91a052	-0.0044441605
45	0xbda8b375	-0.08237354
46	0x3cdffa0d	0.027340913
47	0xbcd3d326	-0.02585752
48	0x3cfdf691	0.031001361
49	0x3e183ab7	0.14866148
50	0xbd3027d7	-0.043006744
51	0x3d8006ff	0.062513344
52	0x3d21f813	0.039543223
53	0xbca380fe	-0.01995897
54	0xbde7e478	-0.11322874
55	0x3e77d9b9	0.24204148
56	0xbd2aeb58	-0.041728348
57	0x3d693699	0.056936834
58	0x3d25d7e2	0.040489085
59	0x3d0aae69	0.033857737
60	0xbcaa5217	-0.020791097
61	0xbe7590dc	-0.2398104
62	0x3d88afc9	0.06674153
63	0xbd0cb32d	-0.034350563
64	0x3ccbe47f	0.024889229
65	0xbc8dedd3	-0.017325317
66	0x3cb11d0c	0.021620296
67	0x3da3c049	0.0799566
68	0xbd90eba1	-0.07076193
69	0xbd3922cb	-0.045199197
70	0x3e04cdf2	0.12969187
71	0xbe01115b	-0.12604277
72	0x3e1fcc59	0.15605296
73	0xbd8851a4	-0.06656197
74	0x3dcfb718	0.10142344
75	0x3d81cadc	0.063375205
76	0x3d930360	0.07178378
77	0x3da3db36	0.080007955
78	0xbdb5ac3b	-0.08870741
79	0x3d46bcc4	0.048519865
80	0x3e042c0a	0.12907425
81	0xbc42bb10	-0.0118854195
82	0xbb6024ac	-0.0034201546
83	0x3c8cd4b2	0.017191265
84	0x3e46e3c1	0.19422819
85	0x3d7a1eaf	0.06106442
86	0x3d4bbf24	0.049742833
87	0xbe183271	-0.14862992
88	0x3e026bf8	0.127365
89	0xbdd58789	-0.10426242
90	0xbdd1383f	-0.10215806
91	0x3c92b590	0.017908841
92	0x3e4239ef	0.18967412
93	0xbcb009bd	-0.021489019
94	0xbddff9dc	-0.10936329
95	0x3c012fbc	0.007884916
96	0xbe18617a	-0.14880934
97	0xbb17f8d6	-0.002318909
98	0xbddf3dc3	-0.10900452
99	0xbd52aa86	-0.051432155
100	0x3ceb0791	0.028690131
101	0x3de404f0	0.11133754
102	0x3d8e89ad	0.06959853
103	0x3e0b39b2	0.13596228
104	0xbca0f23f	-0.019646762
105	0xbd212be1	-0.039348487
106	0x3d8a6dfb	0.06759258
107	0xbc87513d	-0.01651823
108	0xbce0a0db	-0.027420452
109	0x3c4f9cb1	0.0126716355
110	0xbcbeea63	-0.023305124
111	0x3d19f3ca	0.03758601
112	0x3c38cc3f	0.011279165
113	0xbde246c1	-0.110486515
114	0xbcf32103	-0.029678827
115	0x3c9c25cb	0.01906099
116	0xbdca2c52	-0.09871735
117	0xbcc3105c	-0.023811512
118	0x3b7c1e95	0.0038470377
119	0x3d426b39	0.047465537
120	0x3dbc8e92	0.09206881
121	0xbd7ee87e	-0.06223344
122	0x3d39b18e	0.045335345
123	0xbd647663	-0.055776965
124	0x3e1e2ffc	0.15447992
125	0x3da25944	0.07927182
126	0xbe7d5822	-0.24740651
127	0xbda77d07	-0.08178144
128	0x3df59aef	0.11992442
129	0x3dabd2c1	0.083898075
130	0x3d7eb5bd	0.062185038
131	0xbd53c6e7	-0.05170336
132	0xbcdfd2a5	-0.027322123
133	0x3e17f190	0.14838243
134	0xbd17e9aa	-0.037088074
135	0xbd8e729b	-0.06955453
136	0xbdf21776	-0.11820881
137	0x3daf2709	0.08552367
138	0xbd4994f4	-0.04921432
139	0xbe2c3011	-0.16815211
140	0x3d820f4b	0.06350573
141	0x3d5c26f1	0.053748075
142	0x3db59fd0	0.088683724
143	0x3d72e85d	0.05930363
144	0x3d5a551c	0.053303823
145	0x3ce69876	0.02814887
146	0x3d2d611d	0.042328943
147	0x3cdec1b9	0.027191984
148	0xbd852497	-0.065011196
149	0x3dab7dba	0.0837359
150	0x3dc56e9a	0.09640236
151	0xbb1d0c2d	-0.0023963556
152	0xbb6c814e	-0.0036087814
153	0xbc0f1cf6	-0.008734932
154	0x3dbab45d	0.09116433
155	0x3e04583d	0.12924285
156	0x3d8439ff	0.064563744
157	0x3ce080fe	0.027405258
158	0xbd235d67	-0.039883997
159	0x3d850fd5	0.0649716
160	0xbde58e99	-0.11208839
161	0x3e2aa516	0.16664538
162	0xbdbc766f	-0.09202277
163	0xbc50b5cc	-0.012738656
164	0x3ce51b80	0.027967215
165	0x3cc18803	0.023624426
166	0x3de22895	0.11042897
167	0xbe1f8fdd	-0.15582223
168	0x3d2482ba	0.040163733
169	0x3e3661a0	0.17810678
170	0xbd9e4646	-0.07728247
171	0x3db2ce24	0.087307245
172	0xbd70b1a6	-0.05876317
173	0xbe667c0d	-0.22508259
174	0xbbafa7cc	-0.005360579
175	0x3e076857	0.13223396
176	0x3cea4bea	0.028600652
177	0xbd4f1c5e	-0.050564162
178	0xbcd7555a	-0.026285816
179	0xbe21e5d3	-0.15810327
180	0x3d386e8d	0.045027304
181	0xbd432df3	-0.047651242
182	0x3c90e624	0.017687865
183	0x3d28d632	0.041219898
184	0x3d90a42e	0.07062565
185	0x3d08334f	0.033252057
186	0xbcb69dfa	-0.022292126
187	0xbdde7e3c	-0.10863921
188	0xbcedeea6	-0.02904446
189	0xbdf1172f	-0.11772
190	0xbd5ebad1	-0.05437738
191	0x3d0d4a49	0.034494672
192	0x3d6bf2f3	0.05760474
193	0xbc9c5d29	-0.019087391
194	0xbd3f667f	-0.046728607
195	0x3df89aa9	0.12138874
196	0x3d01bbca	0.03167323
197	0xbdedf4a6	-0.116189286
198	0x3d75199d	0.05983888
199	0x3e2e1467	0.1699997
200	0x3c28ed24	0.010310445
201	0xbdc27809	-0.09495551
202	0xbd96b7d0	-0.07359278
203	0xbe1c1be8	-0.1524502
204	0xbd84af31	-0.064787276
205	0x3ddd0d0f	0.10793506
206	0x3d96950d	0.07352648
207	0x3de3bed4	0.11120382
208	0x3c38a15f	0.011268943
209	0x3dadace0	0.08480239
210	0x3d3bc0c9	0.04583815
211	0x3e286b59	0.164472
212	0xbe07b9d9	-0.13254489
213	0x3da719a4	0.081591874
214	0xbcfd21a8	-0.030899838
215	0xbd1c5700	-0.038168907
216	0x3d0754d2	0.033039875
217	0x3c095e4b	0.008384298
218	0xbde779ba	-0.113025144
219	0xbd6ce123	-0.057831895
220	0x3d4408cd	0.047859956
221	0xbe0078f2	-0.12546137
222	0x3dfca508	0.12336165
223	0xbbe9be01	-0.007133246
224	0xbcba2c06	-0.02272607
225	0xbc97a32c	-0.018510424
226	0xbd8b861c	-0.06812689
227	0xbe412e08	-0.18865216
228	0x3dfd04bf	0.12354421
229	0xbc55fc88	-0.013060696
230	0x3c9ab910	0.018887073
231	0xbd54d63e	-0.05196213
232	0xbdcbb180	-0.09945965
233	0x3e21f3a7	0.15815602
234	0xbdb29078	-0.087189615
235	0x3e2219e4	0.15830189
236	0x3d0cefab	0.034408253
237	0x3d4b7e33	0.0496809
238	0x3d455909	0.048180614
239	0xb95334d0	-0.00020142202
240	0x3ce621a1	0.028092207
241	0xbe07ea8f	-0.13273071
242	0xbd903e25	-0.07043103
243	0x3c46e6ee	0.012140019
244	0xbd80ff9c	-0.062987536
245	0xbd750134	-0.0598156
246	0xbce633d7	-0.028100891
247	0x3c98f8b6	0.018673282
248	0x3d54f0fa	0.051987626
249	0xbd24165a	-0.04006038
250	0xbe37958f	-0.17928146
251	0xbdd7711f	-0.10519623
252	0x3df87602	0.12131883
253	0x3dad847b	0.08472534
254	0x3cd6ffc8	0.026245013
255	0x3d040936	0.032235347
