Assets/ML-Agents/Brains/WithFlagsManual2.onnx (onnx, 117462 bytes, 7 tensors)

action_model._continuous_distribution.log_sigma f4 [1, 5]
00000000: 0000 0000 0000 0000 0000 0000 0000 0000
00000010: 0000 0000
0.0 0.0 0.0 0.0 0.0

action_model._continuous_distribution.mu.bias f4 [5]
00000000: 0000 0000 0000 0000 0000 0000 0000 0000
00000010: 0000 0000
0.0 0.0 0.0 0.0 0.0

action_model._continuous_distribution.mu.weight f4 [5, 128]
00000000: 53d0 083c b08d 493c 5742 853b 509b 1abb
00000010: 9533 d4bb ff0a 00bc f723 7cbc d885 fbba
00000020: f7d2 49bc dfcb 8d3c 3781 bdbb 5706 e2b9
00000030: efc4 60bc c3ef ccbc ee28 bbbc 35f3 b8bb
00000040: b68c 89bc 7456 9e3b 755a 713c 6f7f 74bc
00000050: 8ffb 25bc 5772 39bc 5b77 453c 0ea7 4c3c
00000060: c39a de3c d551 6b39 dd83 353c 0635 0d3b
00000070: dfa8 3abc 65e2 803a 602d 60bb c589 57bc
00000080: 6014 e43a 42ae 743c 0260 613c d635 2d3c
00000090: 7c23 9a3c f70c 99b9 a7a5 833c 6bbb bc3b
000000a0: 3339 a738 c22e 7a3c ab43 90bc 138d 0fbb
000000b0: 2bf1 72bc 3d76 743b 939b 79bc c827 4eb5
000000c0: 532a 2f3c 90c9 e53b 1fce 5b3a 722b 5cbc
000000d0: b74a 98bb e897 c13c 1b0a baba 7d1f 693b
000000e0: 08bc 69bc a0fb c83b b890 e4bb 1f5e 6cbc
000000f0: 7d7f 1d3d 9274 743a 27ca 843c 47c1 5cbc
00000100: 09d7 82bc a016 6e3c 27b7 2f3c afe2 3fbb
00000110: ff1d c6bb f9be 963a 315b aa3b 3e15 15bd
00000120: 9f99 2ebd 2612 90bc bbd0 2bbc 7101 893c
00000130: 7ab7 16bc 31c0 943c 067e bebc 5d73 31bb
00000140: 882b 613b df74 17bd 666b 2dbb 0f2a 85bc
00000150: e7b2 f93a e036 083d 7843 d0bc 9b2d 573b
00000160: 127d 64bb bfc6 413c 8ff5 e1bb af3f bfbc
00000170: 2f66 d5ba acb4 3ebc 3bc3 b93b c5ff 9cbc
00000180: 4fa2 503d ce90 95bb d38c e0bc 7b80 9fba
00000190: ef65 8d3b 7321 1f3c c62f cb3a a1cd 943c
000001a0: 2700 423c f797 47bb 56e6 1f3b f505 cfbc
000001b0: d9ca c63c a217 5b3c bf60 4c3c db1c 51bb
000001c0: 10b9 953b 135b e13c a32b 743c 3d7e fe3c
000001d0: 4db9 d4bc 0ba8 87bc 0aaf 043d 43d4 173c
000001e0: 6fe3 063d ed6e 4ebc 229d cf3c 0f0b 5139
000001f0: 2ff9 d2bc a3bc 40bc 34ae c1bc 46d0 16bd
00000200: 16ce 86bc 78eb 563c fb26 20bd df58 ee3b
00000210: f324 84bb 63a1 893c cd58 c5bb 5a39 073b
00000220: 2918 3cbb 4bd3 18bd 6453 383c 0815 e63a
00000230: 5734 86bc 8202 32bd d8e8 b2bc 2d80 213d
00000240: 9b45 f7bc 1486 2e3b 62b7 c3b9 7590 c63b
00000250: 5cd6 833c 7b61 803b bd7d d13b c561 f9bc
00000260: 10df f73c 3025 45bb 1838 413c 8047 e538
00000270: 4fd0 ffbb e750 aa3a a3eb 1b3c 2b09 3bbd
00000280: 8efd b23b 0a88 743c 02d4 913c 5b62 953c
00000290: 2be0 193d a816 5fbc af52 013c b71a b93b
000002a0: 029c 72bc 4363 9bbc 4745 0e3c 1839 733c
000002b0: 4096 7e3c 60fd b73c 33f8 1db9 8aee 723c
000002c0: 7322 093c 7a25 9b3b d8cd e3bc d79d 2e3c
000002d0: 98f0 893c ce35 a43b a115 8f3c 39ba adbb
000002e0: ea07 b6bb 35c0 c3bc 732d 82bb 2447 c83c
000002f0: 0656 453c 7775 7dbc 98ca dbbc 95c7 dbbc
00000300: 9ebc 9cbc 57be ad3c dc64 a93c 2a8f dfbc
00000310: 3acd 2e3d ff48 21bd a538 ff3b 6b14 92bc
00000320: b060 d738 e838 8dbb 0dfc b438 ab82 133d
00000330: 358a ef3b 81dd 9ebc afcb 82bc 6a25 013d
00000340: 0392 963c 3dfa eabc eff7 32bc e6b8 cbbc
00000350: 01aa 3cbc cc72 453c 1b53 a3bb 90f1 ffbb
00000360: af0d 17bd 186c 523c f33e 3e3a 5de2 e73c
00000370: 956b 78bc 2d47 f73b c5e8 cdbc 8352 3ebc
00000380: c097 1fbc 9820 ae3c 5203 f73b 7172 013d
00000390: d32a 283d 2d8a bcbc 78ea 2fbc 5511 4d39
000003a0: 04a5 a2bb 8acc f03a 60e2 e83c f790 51bc
000003b0: 2df1 b13c 132f f3b8 0612 80bc a3e5 b33c
000003c0: 1d89 9e3c af23 13bd 3543 7c3b a518 84bc
000003d0: cb1b 0fbd 75a2 4dbb 8dd5 07bd 052a 09bd
000003e0: b605 09bb c36b 3c3a 054d ea3c e7ef 803c
000003f0: 7a5a 6dbc e0b2 0d3c e379 77bc 9bf8 fcbc
0.00835045 0.012301847 0.004066746 -0.0023591109 -0.0064758756 -0.007815122 -0.015389434 -0.0019189669
-0.012318364 0.017309127 -0.005783226 -0.00043110803 -0.013718828 -0.025016671 -0.022846665 -0.005644227
-0.016790729 0.0048320834 0.014731039 -0.014922961 -0.010130777 -0.011318765 0.012052382 0.012491001
0.027173406 0.00022441831 0.011078802 0.0021546497 -0.011392801 0.0009833096 -0.0034206733 -0.013155405
0.0017401092 0.014934124 0.0137558 0.0105719175 0.018815748 -0.00029192094 0.0160702 0.0057596467
7.973835e-05 0.015269937 -0.017610392 -0.0021904155 -0.014828007 0.003730192 -0.015234846 -7.679887e-07
0.010691243 0.0070125535 0.00083849014 -0.013438093 -0.0046475786 0.023632005 -0.0014193685 0.0035571747
-0.014266022 0.0061335117 -0.0069752596 -0.014426737 0.03845166 0.00093252317 0.016209675 -0.013473815
-0.015971677 0.014531761 0.010724819 -0.00292794 -0.0060460563 0.0011501006 0.005198859 -0.03639721
-0.042626973 -0.017586779 -0.010486777 0.01672432 -0.009199018 0.01815805 -0.023253452 -0.0027076819
0.0034358222 -0.03697669 -0.002646172 -0.016255407 0.001905051 0.033255458 -0.025422797 0.003283358
-0.0034864587 0.01182717 -0.006895728 -0.023345796 -0.0016281063 -0.011639755 0.0056690252 -0.01916493
0.05093604 -0.004564381 -0.0274109 -0.0012169027 0.00431513 0.009712565 0.0015501908 0.018164458
0.011840857 -0.0030455568 0.0024398766 -0.025271395 0.024266647 0.013372334 0.012474238 -0.0031908068
0.0045691803 0.027509248 0.014902982 0.031066054 -0.025967265 -0.016559621 0.032393493 0.009266916
0.03293174 -0.012599689 0.025343481 0.00019935913 -0.025753586 -0.0117637245 -0.023642637 -0.03681972
-0.016455691 0.013117664 -0.039099675 0.007273778 -0.004032725 0.016800588 -0.006022549 0.002063355
-0.0028700924 -0.03731088 0.011250351 0.0017553875 -0.01638238 -0.043459423 -0.021839544 0.03942888
-0.030184558 0.002663021 -0.0003732993 0.006059701 0.016093425 0.0039178706 0.006393163 -0.030442128
0.030257732 -0.003008198 0.011793159 0.00010932889 -0.0078068147 0.0012994081 0.009516629 -0.04566304
0.005462355 0.014925012 0.017801289 0.018235376 0.0375673 -0.0136162415 0.007893248 0.0056489366
-0.014807703 -0.01896823 0.008683509 0.014845155 0.015538752 0.022459686 -0.00015065148 0.01482738
0.00837003 0.004734692 -0.027808115 0.010657749 0.016838357 0.005011297 0.017466368 -0.0053017405
-0.0055551426 -0.023895362 -0.003972703 0.024447985 0.012044435 -0.0154699 -0.026830003 -0.026828567
-0.019132908 0.021208925 0.020677976 -0.027289946 0.042676188 -0.039376255 0.007788735 -0.017832002
0.00010270008 -0.0043097623 8.630017e-05 0.036013287 0.0073101767 -0.01939273 -0.015966265 0.03152982
0.01838017 -0.028683776 -0.01092337 -0.02486844 -0.011515141 0.0120512955 -0.004984272 -0.007810779
-0.036878284 0.012843154 0.0007257305 0.02830618 -0.015162368 0.0075463266 -0.025135407 -0.011616352
-0.00974077 0.021255776 0.0075382376 0.03160328 0.041056465 -0.023015106 -0.010737054 0.0001955678
-0.004963519 0.0018371504 0.028428257 -0.01279091 0.021721447 -0.00011595911 -0.015633594 0.021960085
0.01935249 -0.035922702 0.0038492207 -0.016125033 -0.034938615 -0.003137735 -0.033162642 -0.03348734
-0.0020907945 0.00071876886 0.028601179 0.015739394 -0.014486903 0.008648604 -0.015104744 -0.030880263

network_body.linear_encoder.seq_layers.0.bias f4 [128]
00000000: 0000 0000 0000 0000 0000 0000 0000 0000
00000010: 0000 0000 0000 0000 0000 0000 0000 0000
00000020: 0000 0000 0000 0000 0000 0000 0000 0000
00000030: 0000 0000 0000 0000 0000 0000 0000 0000
00000040: 0000 0000 0000 0000 0000 0000 0000 0000
00000050: 0000 0000 0000 0000 0000 0000 0000 0000
00000060: 0000 0000 0000 0000 0000 0000 0000 0000
00000070: 0000 0000 0000 0000 0000 0000 0000 0000
00000080: 0000 0000 0000 0000 0000 0000 0000 0000
00000090: 0000 0000 0000 0000 0000 0000 0000 0000
000000a0: 0000 0000 0000 0000 0000 0000 0000 0000
000000b0: 0000 0000 0000 0000 0000 0000 0000 0000
000000c0: 0000 0000 0000 0000 0000 0000 0000 0000
000000d0: 0000 0000 0000 0000 0000 0000 0000 0000
000000e0: 0000 0000 0000 0000 0000 0000 0000 0000
000000f0: 0000 0000 0000 0000 0000 0000 0000 0000
00000100: 0000 0000 0000 0000 0000 0000 0000 0000
00000110: 0000 0000 0000 0000 0000 0000 0000 0000
00000120: 0000 0000 0000 0000 0000 0000 0000 0000
00000130: 0000 0000 0000 0000 0000 0000 0000 0000
00000140: 0000 0000 0000 0000 0000 0000 0000 0000
00000150: 0000 0000 0000 0000 0000 0000 0000 0000
00000160: 0000 0000 0000 0000 0000 0000 0000 0000
00000170: 0000 0000 0000 0000 0000 0000 0000 0000
00000180: 0000 0000 0000 0000 0000 0000 0000 0000
00000190: 0000 0000 0000 0000 0000 0000 0000 0000
000001a0: 0000 0000 0000 0000 0000 0000 0000 0000
000001b0: 0000 0000 0000 0000 0000 0000 0000 0000
000001c0: 0000 0000 0000 0000 0000 0000 0000 0000
000001d0: 0000 0000 0000 0000 0000 0000 0000 0000
000001e0: 0000 0000 0000 0000 0000 0000 0000 0000
000001f0: 0000 0000 0000 0000 0000 0000 0000 0000
0.0 0.0 0.0 0.0 0.0 0.0 0.0 0.0
0.0 0.0 0.0 0.0 0.0 0.0 0.0 0.0
0.0 0.0 0.0 0.0 0.0 0.0 0.0 0.0
0.0 0.0 0.0 0.0 0.0 0.0 0.0 0.0
0.0 0.0 0.0 0.0 0.0 0.0 0.0 0.0
0.0 0.0 0.0 0.0 0.0 0.0 0.0 0.0
0.0 0.0 0.0 0.0 0.0 0.0 0.0 0.0
0.0 0.0 0.0 0.0 0.0 0.0 0.0 0.0
0.0 0.0 0.0 0.0 0.0 0.0 0.0 0.0
0.0 0.0 0.0 0.0 0.0 0.0 0.0 0.0
0.0 0.0 0.0 0.0 0.0 0.0 0.0 0.0
0.0 0.0 0.0 0.0 0.0 0.0 0.0 0.0
0.0 0.0 0.0 0.0 0.0 0.0 0.0 0.0
0.0 0.0 0.0 0.0 0.0 0.0 0.0 0.0
0.0 0.0 0.0 0.0 0.0 0.0 0.0 0.0
0.0 0.0 0.0 0.0 0.0 0.0 0.0 0.0

network_body.linear_encoder.seq_layers.0.weight f4 [128, 90]
00000000: ef62 5c3d cb21 00bd 2eac 9fbe 9b50 843d
00000010: e39a 77bd 0179 acbd 8a27 23bc dc98 753d
00000020: ccbf 013d a483 08bb d174 f9bd 0aa8 523d
00000030: ab65 393d 34c1 39bc e916 bdbd 0990 7a3d
00000040: eb06 983d 9a15 29be 2b52 76bd 71c1 11bd
00000050: 7b1e 033e f2ae f23d 6ef1 27be 7491 dd3d
00000060: e9cd b6bc c699 1abe 5cbb 0e3e e7ad 68bd
00000070: df04 f93c 3e2c 893d 0fec ebbd 5fcc 0cbd
00000080: ec5f 263d af49 263e 9de2 803d edb7 c4bc
00000090: 4841 28bc 8447 79bd f380 d9bd 97af b13d
000000a0: 4d04 303d 3f98 2139 f85d fa3d a10b 803d
000000b0: d4e6 ac3d d235 40bd 8657 ebbd 0f74 0abe
000000c0: fe78 e8bd fbba 59be d02d 37bc f5b7 f2bd
000000d0: f125 5e3c f8dc 6f3d 214f ca3c d12b e3bc
000000e0: d691 773d 7ccd 86bd fc02 a83d a137 293e
000000f0: 198b bb3d 30c9 fdbb 9f89 1fbe ca61 223b
00000100: eaab 24bd ba9e 193c 778f 693e 3693 c63d
00000110: 173e 44be 3827 1abd 5e79 d63d 0e70 4f3d
00000120: c802 5e3e 3fd6 053e 3437 b23d b793 723d
00000130: b52b d03d a162 94bd 70ab 5cbd 9044 85bd
00000140: f44f ec3c 5888 b13d 26ca c23d e82f 52be
00000150: e734 153e 3110 713d f887 3cbe 66bd 2dbd
00000160: 7dff 953d 405c b0bd c164 80be b896 aabd
00000170: c453 c3ba f3b8 d8bc 0b81 853c 37a2 7abd
00000180: 3884 04be dd95 8bbc cb4b a63d e332 fb3d
00000190: f4d7 24bd 682f 8b3d 0c36 8f3c 9458 5b3d
000001a0: 5a59 4e3d 7a81 22be 39c0 b1bd f8d8 ad3d
000001b0: b4dd a03d 9874 853a 538f 353b 5075 7cbe
000001c0: bb0e 163e 358a 1b3d b227 3a3d 8265 393c
000001d0: a3ec 98bd ea14 d4bc 12cc 24bd 6d6f 0bbd
000001e0: 5060 783d db38 36be 6ff9 74bd 6f17 b4bd
000001f0: f101 703b 342e 7fbd 8d24 9fba 7a75 073e
00000200: 0556 4f3d 1806 3e3e ea1c 883d 0b3c ef3b
00000210: 1c35 85bd 5624 793e fa40 613d 55ef 533b
00000220: 2832 eabc c6c5 393d 2479 7dbd aa42 123e
00000230: 2795 58b9 ada0 493e 175d b53c 790a 043e
00000240: 7e55 163e 5eef 913d 9fc3 08be 4a32 6cbe
00000250: 82fa 513d 621b 19be 87bb 3abe 20cb 493e
00000260: d532 05bc a6e4 0ebd c3b5 553e d6dc 303d
00000270: 7501 50be 6f1a ccbd 9044 2f3e b354 b5bd
00000280: d205 95bd 06fe b4bd c537 79bd 0579 543e
00000290: d7f5 39be 1eaa a13d fb5b cebd 85c0 663d
000002a0: e47b 823d ec0e 4abd 6821 3dbe a90c e23d
000002b0: 42bf 45be 9f3d 983d b297 50bd 282a d13d
000002c0: e7a3 58be a1cb c7bd b62a 01be 7ccc 98bd
000002d0: 5d9f 57bd b247 b13b 097c 01bd 24ad 3abe
000002e0: fccd 3d3d cf35 c9bd 9ba5 073b 0dad 55bc
000002f0: 6ac6 603e 9bd0 063e a441 c43d dbfe a23d
00000300: 4795 16be 0695 0a3e 9d2a f73d 2d03 953d
00000310: 0692 85bd fb04 fb3c b2f0 cb3d 0490 353e
00000320: a4e1 c0bd 05bd d5bd cb06 013c 8961 cfbd
00000330: 4f1a cabd 76da 1b3c ef30 1ebd 4058 6bbe
00000340: 50bd 1a3d d73d 133e 76d4 32bd e8d2 c83d
00000350: 0ddc 66bd 56c5 573c 89af ebbd ee59 ca3d
00000360: bd5b 5fbd 0e77 bebd 5117 abbd a489 643d
00000370: 8bf8 803d 1ded dd3c 1e39 623d 997d 1b3d
00000380: faee 713d 3f15 043e 89cf 29be 15db 9cbd
00000390: 10e8 a13c 4e64 29be 912c 20bd 02bb f2bc
000003a0: 8982 973d 4b80 773d bdaa 28bb 377d 203d
000003b0: 2255 0d3e 0976 723d f64e a73d cd4a fbbd
000003c0: fe40 2cbd 62fe 15be 7738 a3bd cedb 2e3d
000003d0: 2936 d03d 1eda 15be f4b0 e63c 0494 553d
000003e0: 2fb4 b03c a981 913e ff96 e3bd 5c15 243d
000003f0: 4ff8 94bd 42f6 0dbe 07dc b2bd 2237 75bd
0.053805288 -0.031282227 -0.3118605 0.06460687 -0.060450446 -0.08421517 -0.009958157 0.05996023
0.031677052 -0.0020830417 -0.12180484 0.051429786 0.045262974 -0.011337567 -0.092328854 0.06117252
0.074231945 -0.16512147 -0.060136955 -0.03558487 0.12804596 0.118497744 -0.16400692 0.108187586
-0.022314982 -0.15097722 0.1393866 -0.05680647 0.03039783 0.06697892 -0.11519634 -0.03437459
0.040618822 0.16239046 0.06293223 -0.024013484 -0.0102694705 -0.06085922 -0.10620298 0.08676069
0.04297285 0.00015410873 0.12224954 0.06252218 0.084424645 -0.046926327 -0.11491303 -0.13520835
-0.113512024 -0.21262734 -0.011180356 -0.11851493 0.013558851 0.05856034 0.024695935 -0.027730854
0.060441814 -0.06582162 0.08203694 0.16525127 0.0915739 -0.0077449307 -0.15579842 0.0024777525
-0.040203013 0.009376222 0.22808634 0.09696047 -0.1916431 -0.03763506 0.10472368 0.050643973
0.21680748 0.1307001 0.087019354 0.059222903 0.101645865 -0.072453745 -0.053874433 -0.06507218
0.028846718 0.08668584 0.09511213 -0.20526087 0.14570962 0.058853332 -0.18411243 -0.042416953
0.07324121 -0.08611345 -0.2507687 -0.083295286 -0.0014902283 -0.026455378 0.016296884 -0.061189856
-0.12941062 -0.017039234 0.08119925 0.12265565 -0.04024501 0.067961514 0.017481826 0.05355127
0.05037818 -0.15869704 -0.08679242 0.08488649 0.078547865 0.0010181842 0.0027703836 -0.24654126
0.14654057 0.0379736 0.045448013 0.011315705 -0.0746701 -0.025888879 -0.04023368 -0.03404181
0.060638726 -0.17795126 -0.05980819 -0.08793532 0.003662225 -0.062299922 -0.001214163 0.13228408
0.050619144 0.18557012 0.0664614 0.007300859 -0.065042704 0.24330267 0.054993607 0.0032338698
-0.02858837 0.045354627 -0.061883107 0.14283243 -0.00020654929 0.19690199 0.022139115 0.1289462
0.1468105 0.07125734 -0.13355874 -0.23066059 0.051264293 -0.14951852 -0.18235599 0.19706392
-0.008129795 -0.034886025 0.20870118 0.043179356 -0.20313056 -0.09965979 0.17115998 -0.08854046
-0.07276501 -0.088375136 -0.0608442 0.2074929 -0.18160187 0.078937754 -0.10076138 0.056335945
0.063712865 -0.049330637 -0.18469775 0.11037571 -0.1931124 0.07433628 -0.050925918 0.10213119
-0.21156274 -0.09755636 -0.12613949 -0.07460877 -0.052642215 0.005410158 -0.03161243 -0.1823011
0.04633902 -0.09824716 0.0020698074 -0.013041747 0.21950689 0.13165514 0.095828325 0.07958766
-0.14705382 0.1353341 0.12068675 0.07275996 -0.065219924 0.030642023 0.09958018 0.17730719
-0.094180375 -0.10436443 0.007875155 -0.10126025 -0.09868299 0.009512534 -0.038620885 -0.22982883
0.0377782 0.14379059 -0.04365965 0.09805852 -0.0563622 0.013169607 -0.1150809 0.09880434
-0.054530848 -0.09300052 -0.083540566 0.055795327 0.06297406 0.027090603 0.055230252 0.037961576
0.059065796 0.1289873 -0.16583075 -0.07658974 0.019763976 -0.1654217 -0.039105 -0.029630188
0.073979445 0.060425084 -0.0025736534 0.039181914 0.13802007 0.0591946 0.081693575 -0.122701265
-0.04205417 -0.1464782 -0.07969754 0.04269009 0.1016658 -0.14633986 0.02816055 0.05214311
0.021570293 0.28419235 -0.111127846 0.040059432 -0.072739236 -0.13863471 -0.08733373 -0.059867032

network_body.linear_encoder.seq_layers.2.bias f4 [128]
00000000: 0000 0000 0000 0000 0000 0000 0000 0000
00000010: 0000 0000 0000 0000 0000 0000 0000 0000
00000020: 0000 0000 0000 0000 0000 0000 0000 0000
00000030: 0000 0000 0000 0000 0000 0000 0000 0000
00000040: 0000 0000 0000 0000 0000 0000 0000 0000
00000050: 0000 0000 0000 0000 0000 0000 0000 0000
00000060: 0000 0000 0000 0000 0000 0000 0000 0000
00000070: 0000 0000 0000 0000 0000 0000 0000 0000
00000080: 0000 0000 0000 0000 0000 0000 0000 0000
00000090: 0000 0000 0000 0000 0000 0000 0000 0000
000000a0: 0000 0000 0000 0000 0000 0000 0000 0000
000000b0: 0000 0000 0000 0000 0000 0000 0000 0000
000000c0: 0000 0000 0000 0000 0000 0000 0000 0000
000000d0: 0000 0000 0000 0000 0000 0000 0000 0000
000000e0: 0000 0000 0000 0000 0000 0000 0000 0000
000000f0: 0000 0000 0000 0000 0000 0000 0000 0000
00000100: 0000 0000 0000 0000 0000 0000 0000 0000
00000110: 0000 0000 0000 0000 0000 0000 0000 0000
00000120: 0000 0000 0000 0000 0000 0000 0000 0000
00000130: 0000 0000 0000 0000 0000 0000 0000 0000
00000140: 0000 0000 0000 0000 0000 0000 0000 0000
00000150: 0000 0000 0000 0000 0000 0000 0000 0000
00000160: 0000 0000 0000 0000 0000 0000 0000 0000
00000170: 0000 0000 0000 0000 0000 0000 0000 0000
00000180: 0000 0000 0000 0000 0000 0000 0000 0000
00000190: 0000 0000 0000 0000 0000 0000 0000 0000
000001a0: 0000 0000 0000 0000 0000 0000 0000 0000
000001b0: 0000 0000 0000 0000 0000 0000 0000 0000
000001c0: 0000 0000 0000 0000 0000 0000 0000 0000
000001d0: 0000 0000 0000 0000 0000 0000 0000 0000
000001e0: 0000 0000 0000 0000 0000 0000 0000 0000
000001f0: 0000 0000 0000 0000 0000 0000 0000 0000
0.0 0.0 0.0 0.0 0.0 0.0 0.0 0.0
0.0 0.0 0.0 0.0 0.0 0.0 0.0 0.0
0.0 0.0 0.0 0.0 0.0 0.0 0.0 0.0
0.0 0.0 0.0 0.0 0.0 0.0 0.0 0.0
0.0 0.0 0.0 0.0 0.0 0.0 0.0 0.0
0.0 0.0 0.0 0.0 0.0 0.0 0.0 0.0
0.0 0.0 0.0 0.0 0.0 0.0 0.0 0.0
0.0 0.0 0.0 0.0 0.0 0.0 0.0 0.0
0.0 0.0 0.0 0.0 0.0 0.0 0.0 0.0
0.0 0.0 0.0 0.0 0.0 0.0 0.0 0.0
0.0 0.0 0.0 0.0 0.0 0.0 0.0 0.0
0.0 0.0 0.0 0.0 0.0 0.0 0.0 0.0
0.0 0.0 0.0 0.0 0.0 0.0 0.0 0.0
0.0 0.0 0.0 0.0 0.0 0.0 0.0 0.0
0.0 0.0 0.0 0.0 0.0 0.0 0.0 0.0
0.0 0.0 0.0 0.0 0.0 0.0 0.0 0.0

network_body.linear_encoder.seq_layers.2.weight f4 [128, 128]
00000000: d820 a5bd b241 5f3d 846a 153e 0e0a 1ebe
00000010: b410 de3d 4ce0 fb3d 87dd 2dbc ac92 e6bd
00000020: c3c9 d4bd 1811 3f3d 1e06 d33d 861a d33d
00000030: 025e b43c d441 bf3c 2099 3c3d 6faa f1bc
00000040: fb26 f83d 53b9 d2bd 27f7 b4bd 0ee5 ecbc
00000050: 1216 0fbd 3b7c 203e 42ca 90bd a63a bfbc
00000060: 7c09 eb3d e80e 073d 719c e23d c695 74bc
00000070: 19dd 9c3d 5b9c 1bbc 0430 85bd c9a5 003d
00000080: 075d 06bd 3d92 c9bc 8d87 a2bc 42b2 0b3e
00000090: f741 f1bd 9c00 bbbd 2ffa 203d a12f 573d
000000a0: 31d5 74bd b830 53bd 7fa0 b2bd e03e 663e
000000b0: 9612 9d3c d25e d2bd 0edf 0bbe a321 88bb
000000c0: 552f c93c 7144 9c3d 3227 a83c 4ed9 ae3d
000000d0: f161 fe3c e6a1 ccbc 81be acbd aea3 ca3d
000000e0: 89dc 02be 3bee 6dbe 2460 233c 526c cd3c
000000f0: f692 c03c 18b0 763c 7a4d c33c 9811 3abd
00000100: be41 5c3a 6edc 463d af68 733d e3a5 2cbe
00000110: d728 61bd 27f9 303e 035a d63c 3d98 333e
00000120: ca78 63bc a119 563d d17b d43c 3e62 a23d
00000130: fca1 343c e708 013e 1c22 0a3e 4354 d9bd
00000140: 830d b53b eea6 7ebe 9071 4d3c c310 893d
00000150: 39ed a6bd b7df 98bd 192a c3bd 4de2 87bd
00000160: bd79 e33d 5861 263d 87c7 2a3e d34c 67bc
00000170: d3ef 74bd 5c8a 6dbe 9387 c43d 6e57 473d
00000180: afe5 ba3d d94e 50bd 2958 6bbd a1d0 08bd
00000190: 36d8 e83d 5c13 1ebe 9346 2d3d 683a a2bc
000001a0: 1483 863d 6819 19be 9e38 88bd c60c bdbd
000001b0: 23c5 8e3d ea89 9c3d d75c 08be 2bc8 83bd
000001c0: 697f abbd 1ff1 053e 1a2a 9b3c 7ec6 dcbd
000001d0: d51e 3f3b 1078 7d3c cbff db3b c925 393d
000001e0: 20b4 aabb 227e 87bd 5089 c03d 560c cc3c
000001f0: c0c0 57be 6541 4bbb c2ac f03d 5c0a 413d
00000200: 6f06 20bd 7233 05be b5e5 86bd 43be aa3d
00000210: 1c4e d1bd 95c8 9c3c 63b1 5a3e 56d5 333c
00000220: fa24 273d 1a56 00be 7073 0f3e 2662 dfbc
00000230: 4cec d3bb 8ccf 1e3e f33f 5abe 8853 8cbd
00000240: 632c 58bd a480 513e 2911 8ebd 854f ffbc
00000250: 3d22 8bbc 86b7 0dbd bb7d 8ebd bfc2 dfbc
00000260: c810 743c 64d2 8fbd 72ec 9b3c 6c12 1abe
00000270: a8b8 c13b 24ce c3bd 148b 5f3d 59ac c2bd
00000280: ecd7 12be 7975 d63d 8faf a9bc c156 c73d
00000290: 1b90 2e3d 1658 cc3d 256b 2e3d eaf3 c9bd
000002a0: 2971 823d 6859 4c3d 1250 ff3d f566 973d
000002b0: f7e7 b63c bfac afbd 2e7d 09be 0763 2b3d
000002c0: a5a6 8dbd 9dfd a43c 2323 e2bd 10c1 643d
000002d0: 12b2 9dba 9b4d 183d 6f71 8bbd 4474 4fbe
000002e0: 56e0 773d 2e17 643d 6135 103e 0f7f 473d
000002f0: faf6 553d e0c9 393e f3d9 043d 120e 283d
00000300: 8eb9 5c3d 2ee7 87ba d5aa 9b3d e7a8 023d
00000310: 49e3 87bd 5ec5 c13d e86a 9cbd 7bb6 153e
00000320: 21b9 81bc 9fba d2bd eb99 98bd ba1c dc3d
00000330: 2ab0 17be 11a2 50be 726f 39be cd86 dbbc
00000340: 163e c73d 026b e83d e956 d4bc beba 2a3a
00000350: ebb1 e63d 7e87 b7bd ef31 023e bb66 35be
00000360: 684b b4bc 9411 043e 873e 34bd dbb7 e53d
00000370: 2bbb 713e 0c1d 1e3e d25f ed3c 68ae f83c
00000380: e3ab 773d 21b1 a33c 1e90 0dbe b359 e73c
00000390: 5438 6e3d fbf1 a4bc 4786 dc3d acc3 333c
000003a0: 2745 a33c 6e05 1a3e 1c5e dabd a7a0 363d
000003b0: 3727 69bd 1cdf 1bbe 9489 ebbc 77cc 063d
000003c0: d653 97bc 0276 d73d 7e48 a93d 9353 afbb
000003d0: 3ec3 febc 1998 da3d dd65 fbbb da6b e23d
000003e0: d76f 79bd 3a97 bc3d f529 453d 6ea7 5abd
000003f0: d297 013e 51bc 9d3d 4782 e9bd 5193 a2bd
-0.08062905 0.05450601 0.14591414 -0.15433523 0.108430296 0.122986406 -0.010611898 -0.11258444
-0.103900455 0.04664716 0.10303901 0.10307793 0.022017483 0.023346819 0.04604447 -0.029500214
0.1211681 -0.10289254 -0.08836203 -0.028917816 -0.034933157 0.1567239 -0.070698276 -0.023343395
0.114764184 0.0329732 0.11064995 -0.014928287 0.076593585 -0.009497727 -0.06503299 0.031408105
-0.03280356 -0.024605865 -0.019840026 0.13642219 -0.1178016 -0.091309756 0.039301094 0.052535657
-0.059773628 -0.051560134 -0.087220185 0.22484922 0.019173902 -0.10271992 -0.13659307 -0.0041544004
0.024558702 0.07630242 0.020526502 0.08537541 0.031052561 -0.024979543 -0.08434773 0.09894501
-0.1277944 -0.23235409 0.009971652 0.025076065 0.023507576 0.015056632 0.023840655 -0.045426935
0.00084021303 0.048550062 0.059426006 -0.16860156 -0.05497059 0.17282544 0.026165968 0.17538543
-0.013883779 0.052270535 0.025937947 0.079288945 0.011024948 0.12601052 0.13489574 -0.10611775
0.0055252924 -0.24868366 0.012539282 0.0669265 -0.081507154 -0.07464545 -0.09529514 -0.0663496
0.11107204 0.040620178 0.16677676 -0.014117437 -0.059799027 -0.23197311 0.09596171 0.048667364
0.0912584 -0.050856445 -0.057457123 -0.03340209 0.11369364 -0.15437073 0.042303633 -0.01980324
0.0656797 -0.14951098 -0.06651424 -0.09230952 0.069711946 0.076434925 -0.13316666 -0.064346634
-0.08373911 0.13080262 0.018940974 -0.10780047 0.0029162664 0.01547052 0.0067138425 0.04520205
-0.005209461 -0.06615855 0.0940119 0.024908226 -0.21069622 -0.003101432 0.11751701 0.04712902
-0.039068636 -0.13007906 -0.06586782 0.08337071 -0.10219976 0.019138614 0.2135673 0.010976156
0.040806748 -0.12532845 0.1400888 -0.02726848 -0.0064673778 0.1550886 -0.21313457 -0.0685187
-0.052776705 0.20459229 -0.06936867 -0.031165848 -0.0169841 -0.03459885 -0.06957575 -0.027314542
0.014896579 -0.07022551 0.019033644 -0.1504609 0.0059119053 -0.095608026 0.054575995 -0.09505529
-0.1434018 0.10471625 -0.020713596 0.09733344 0.0426179 0.099777386 0.04258265 -0.09860976
0.0636924 0.049889952 0.12466444 0.07392684 0.022327406 -0.085778706 -0.13426659 0.041842487
-0.069165505 0.020140463 -0.11041858 0.05584818 -0.0012031219 0.037183385 -0.06808745 -0.20259196
0.060516678 0.05568617 0.14082862 0.048705157 0.05223749 0.18143415 0.032434415 0.041029043
0.053887896 -0.001036858 0.07600943 0.03189936 -0.06635148 0.09461473 -0.07637578 0.14620392
-0.015835347 -0.102895014 -0.074512325 0.10747667 -0.14813295 -0.20374323 -0.1810892 -0.026797676
0.09728639 0.11348535 -0.025920348 0.0006512812 0.11264404 -0.0896139 0.1271436 -0.1771497
-0.022008613 0.1289733 -0.044004943 0.11216708 0.23606555 0.15440768 0.028976355 0.0303566
0.06046666 0.019981923 -0.13824508 0.028241014 0.058159187 -0.020134917 0.10767799 0.010971945
0.019930435 0.15041134 -0.10662481 0.044586804 -0.056922164 -0.15221828 -0.028752126 0.032909837
-0.018472593 0.10520555 0.0826578 -0.005350539 -0.031098958 0.106735416 -0.007672055 0.11055727
-0.060897674 0.09208532 0.048135716 -0.05338233 0.12655571 0.07701934 -0.114018016 -0.079382546
